app/src/main/assets/lstm_model.tflite (tflite, 719116 bytes, 8 tensors)

sequential_27/embedding_27/embedding_lookup/99607 f4 [563, 100]
0	0xbb350250	-0.0027619787
1	0xbd2bd5c2	-0.041951902
2	0x3c0f8f15	0.008762141
3	0x3b7296ea	0.0037016221
4	0xbd0000ae	-0.03125065
5	0x3c8675f7	0.016413672
6	0xbca918f6	-0.020641785
7	0xbd0eb884	-0.034843937
8	0xbb52d5aa	-0.003217081
9	0xbbf9433a	-0.007606891
10	0x3d0dcebf	0.034620997
11	0xbc9f1502	-0.019419197
12	0x3d173438	0.036915034
13	0xbd0d5dda	-0.034513332
14	0xbd311e81	-0.04324198
15	0xbbea9057	-0.00715832
16	0xbc03834c	-0.008026909
17	0x3bbbd0d4	0.0057316814
18	0x3d02e473	0.031956147
19	0xbd116aa9	-0.03550211
20	0x3c60f904	0.013731245
21	0x3cd44377	0.025911076
22	0xbd2bbbd2	-0.041927166
23	0x3c8c0330	0.017091364
24	0x3d1b8e57	0.037977543
25	0xbbad172c	-0.0052823033
26	0x3a929bda	0.0011185363
27	0x3d370ce9	0.044690046
28	0x3c185e7e	0.009299872
29	0x3b49a953	0.003077109
30	0xbca77667	-0.0204422
31	0xbd142005	-0.03616335
32	0x3b54d9b5	0.0032478396
33	0x3d332650	0.04373771
34	0x3cb19fb9	0.021682607
35	0xbd156cc8	-0.036480695
36	0x3d51eab4	0.05124922
37	0xbd06a6a1	-0.032873753
38	0xbcf988c3	-0.03046072
39	0xbca3dab3	-0.020001745
40	0x3ce8f701	0.028438093
41	0x3cde0c0e	0.027105357
42	0xb788ee80	-1.6323524e-05
43	0x3cfba630	0.030718893
44	0x3a7d0006	0.00096511876
45	0xbc7e5ad0	-0.015524581
46	0xbcc0fb73	-0.0235574
47	0x3c30b4bf	0.010785281
48	0xbae4ecc3	-0.001746558
49	0xbc42ac3c	-0.011881884
50	0x3d137b67	0.036006358
51	0x3cb7a583	0.02241779
52	0x3bdd2a91	0.006749459
53	0x3d272453	0.040806126
54	0x3cf4d245	0.02988542
55	0x3ba8c8ce	0.005150891
56	0xbc1b0d59	-0.009463632
57	0xbbcafd10	-0.006194718
58	0x3d2bf77f	0.041984078
59	0xbd22ddea	-0.039762415
60	0xbd021a9a	-0.03176365
61	0x3c288dee	0.010287745
62	0x3d3dc886	0.046333812
63	0x3c8939ff	0.016751288
64	0xbc48fc77	-0.012267224
65	0xbd13cfef	-0.036086973
66	0xbb25b434	-0.0025284411
67	0xbcc6cc24	-0.024267264
68	0xbc9eb90c	-0.019375347
69	0x3cf67c4e	0.03008857
70	0x3cac1a2a	0.02100857
71	0xbcf0fe72	-0.029418204
72	0x3cf65caa	0.030073483
73	0x3b7450b7	0.0037279555
74	0x3d2fef13	0.04295261
75	0xbd092782	-0.033484943
76	0xbd2ab44c	-0.04167585
77	0x3d476119	0.048676584
78	0xbd2596e2	-0.040427096
79	0x3b058dc9	0.00203787
80	0x3d0d9afe	0.03457164
81	0x3be1f27c	0.0068953615
82	0x3d0493d2	0.032367535
83	0xbd266c44	-0.040630594
84	0x3d14647c	0.036228642
85	0x3ce8fa2a	0.0284396
86	0x3ca94f71	0.020667763
87	0x3ccea0a5	0.025223086
88	0x3b134a7f	0.0022474823
89	0x3ca0c3e0	0.01962465
90	0xbccccf62	-0.025001232
91	0x3d02e53f	0.031956907
92	0xbcba7725	-0.02276189
93	0xbd3b7302	-0.045763977
94	0xbd094284	-0.0335107
95	0xbc9e7cf0	-0.019346684
96	0xbd3c5449	-0.045978818
97	0xbd22c2ae	-0.039736442
98	0x3a943914	0.0011308515
99	0x3cff7e02	0.031188015
100	0xbd0b0b94	-0.03394659
101	0x3b229dd3	0.002481331
102	0x3c76bbc5	0.015059416
103	0xbd0ed1a3	-0.034867894
104	0xbd74b668	-0.05974427
105	0xbd15cef2	-0.03657431
106	0xbd5d3e42	-0.05401445
107	0xbd5e7201	-0.05430794
108	0x3cafd41a	0.021463443
109	0xbd48c2d4	-0.049013928
110	0x3cc640cb	0.024200818
111	0x3ce06c2d	0.027395332
112	0xbce0713a	-0.02739774
113	0x3b94066a	0.004517366
114	0x3cc18423	0.023622578
115	0xbd4b5d2b	-0.0496494
116	0x3c833764	0.016017623
117	0xbd4c02e2	-0.049807437
118	0x3c81dab4	0.015851356
119	0xbd292bd3	-0.04130156
120	0xbd6a3b48	-0.05718544
121	0xbd1359ae	-0.035974197
122	0xbd27ab51	-0.040934864
123	0xbcdd1d3e	-0.026991483
124	0x3d309d38	0.043118685
125	0xbd032708	-0.032019645
126	0x3d0156af	0.03157681
127	0xbb870215	-0.0041201212
128	0xbc7e437b	-0.015519018
129	0xbb7285f4	-0.0037006112
130	0x3c97dc65	0.01853771
131	0xbcd56094	-0.026047029
132	0x3d6353e7	0.055499937
133	0x3b63514b	0.0034685906
134	0xbc4c542e	-0.012471242
135	0xbd76548b	-0.06013922
136	0x3ca5adca	0.02022447
137	0x3cc6cc84	0.024267443
138	0x3c1efc3e	0.009703694
139	0xbd487200	-0.048936844
140	0x3bc630bd	0.0060482905
141	0x3c3cb71e	0.011518268
142	0x3d8bef78	0.068327844
143	0xbd4cb6d8	-0.04997906
144	0xbb168739	-0.0022968783
145	0xbd671bff	-0.056423184
146	0xbc5a5bf9	-0.013327592
147	0xbb9e8e17	-0.004838716
148	0x3d26c9b9	0.04071972
149	0xbd8e7fbb	-0.069579564
150	0xbb8dba53	-0.00432519
151	0xbd26b380	-0.04069853
152	0xbc8d3aac	-0.017239891
153	0x3c83f50e	0.016108062
154	0x3c53ebfb	0.01293468
155	0x3bacba6e	0.0052712476
156	0xbd2bc863	-0.04193915
157	0xbba1010a	-0.004913454
158	0x3cc67f32	0.024230573
159	0x3d71ecbb	0.059063654
160	0xbd2ee53b	-0.04269908
161	0x3ca47f9b	0.020080378
162	0xbc771e17	-0.015082858
163	0xbc27a659	-0.010232531
164	0x3c52d4da	0.012868131
165	0x3caa7cbd	0.020811433
166	0xbd1a4a2f	-0.037668403
167	0x3d2221ef	0.039583143
168	0x3d2fc6f6	0.042914353
169	0x3d4f4c4c	0.05060987
170	0x3d1a4f5e	0.037673347
171	0xbd7bd04c	-0.061477944
172	0x3ce593d2	0.028024588
173	0x3d159cf1	0.036526624
174	0x3d3c6bc5	0.046001215
175	0xbbf04b99	-0.0073332307
176	0xbd9d7844	-0.076889545
177	0x3c90f896	0.01769666
178	0xbd351db9	-0.0442178
179	0xbd1b0f60	-0.03785646
180	0xbc37bf19	-0.011214995
181	0xbc471a86	-0.01215232
182	0x3cc09301	0.023507597
183	0xbd95e3ba	-0.07318826
184	0xbcf4b736	-0.029872518
185	0xbcb4bedf	-0.02206367
186	0xbc25abe6	-0.010111785
187	0xbca7df99	-0.020492362
188	0x3d2cebaf	0.042216953
189	0xbd1b607a	-0.037933804
190	0xbc35cd99	-0.011096382
191	0x3ca88db2	0.020575378
192	0xbcabba63	-0.0209629
193	0xba9d26be	-0.0011989695
194	0xbd130964	-0.035897627
195	0x3cec8dae	0.028876152
196	0x3cb34405	0.02188302
197	0xbd0d25f6	-0.03446003
198	0xbc14e11f	-0.009086876
199	0x3d563232	0.052293964
200	0x3d3df357	0.046374645
201	0x3c31db09	0.010855445
202	0x3d11caf9	0.03559396
203	0xbd41c4a4	-0.04730667
204	0x3d1d91bb	0.038469058
205	0xbd2a4f8b	-0.041579764
206	0xbc0894d0	-0.008336261
207	0x3d997a50	0.074940324
208	0xbc0bc2be	-0.008530317
209	0x3d25ee1d	0.040510286
210	0xbd302093	-0.042999815
211	0x3c82b9d4	0.01595775
212	0x3d62f092	0.055405207
213	0x3d29a195	0.041413862
214	0x3ccb228a	0.024796743
215	0x3d362ddf	0.04447734
216	0x3ce6f9fb	0.028195372
217	0x3b0de508	0.0021651406
218	0x3c48189a	0.012212897
219	0xbca8a93e	-0.020588513
220	0x3d0144d6	0.031559788
221	0x3cd4a3c5	0.025956998
222	0x3c1b8a5f	0.009493439
223	0xbd4a6563	-0.049413096
224	0x3c89f5f8	0.01684092
225	0xbc30ed77	-0.0107988035
226	0x3b623c9f	0.0034520996
227	0xbd30c38d	-0.04315524
228	0xbc9f8de8	-0.019476846
229	0x3c6d7dce	0.014495326
230	0x3c14a989	0.009073623
231	0x3cbf3035	0.023338417
232	0xbc976b1e	-0.018483695
233	0xbd43a3f5	-0.047763783
234	0xbcebb356	-0.028772037
235	0x3d8af236	0.06784479
236	0xbd0ef50a	-0.034901656
237	0x3cc2be15	0.023772279
238	0x3d27f37f	0.0410037
239	0x3d5d69d8	0.05405602
240	0xbb9b6a33	-0.0047428845
241	0x3c944857	0.0181009
242	0xbd20aab9	-0.039225314
243	0xbd14c90b	-0.036324542
244	0xbd12d687	-0.03584912
245	0xbcb054cd	-0.021524811
246	0x3bb1c1ca	0.005424713
247	0x3d45d153	0.04829533
248	0x3d07e8ef	0.033181127
249	0x3d297a41	0.041376356
250	0xbd2dd49c	-0.04243909
251	0xb9051a74	-0.00012693723
252	0xbd3b8b82	-0.045787342
253	0x3d165b6d	0.036708284
254	0xbd2bba39	-0.041925643
255	0xbd008654	-0.031378105

sequential_27/lstm_21/zeros f4 [1, 128]
0	0x00000000	0.0
1	0x00000000	0.0
2	0x00000000	0.0
3	0x00000000	0.0
4	0x00000000	0.0
5	0x00000000	0.0
6	0x00000000	0.0
7	0x00000000	0.0
8	0x00000000	0.0
9	0x00000000	0.0
10	0x00000000	0.0
11	0x00000000	0.0
12	0x00000000	0.0
13	0x00000000	0.0
14	0x00000000	0.0
15	0x00000000	0.0
16	0x00000000	0.0
17	0x00000000	0.0
18	0x00000000	0.0
19	0x00000000	0.0
20	0x00000000	0.0
21	0x00000000	0.0
22	0x00000000	0.0
23	0x00000000	0.0
24	0x00000000	0.0
25	0x00000000	0.0
26	0x00000000	0.0
27	0x00000000	0.0
28	0x00000000	0.0
29	0x00000000	0.0
30	0x00000000	0.0
31	0x00000000	0.0
32	0x00000000	0.0
33	0x00000000	0.0
34	0x00000000	0.0
35	0x00000000	0.0
36	0x00000000	0.0
37	0x00000000	0.0
38	0x00000000	0.0
39	0x00000000	0.0
40	0x00000000	0.0
41	0x00000000	0.0
42	0x00000000	0.0
43	0x00000000	0.0
44	0x00000000	0.0
45	0x00000000	0.0
46	0x00000000	0.0
47	0x00000000	0.0
48	0x00000000	0.0
49	0x00000000	0.0
50	0x00000000	0.0
51	0x00000000	0.0
52	0x00000000	0.0
53	0x00000000	0.0
54	0x00000000	0.0
55	0x00000000	0.0
56	0x00000000	0.0
57	0x00000000	0.0
58	0x00000000	0.0
59	0x00000000	0.0
60	0x00000000	0.0
61	0x00000000	0.0
62	0x00000000	0.0
63	0x00000000	0.0
64	0x00000000	0.0
65	0x00000000	0.0
66	0x00000000	0.0
67	0x00000000	0.0
68	0x00000000	0.0
69	0x00000000	0.0
70	0x00000000	0.0
71	0x00000000	0.0
72	0x00000000	0.0
73	0x00000000	0.0
74	0x00000000	0.0
75	0x00000000	0.0
76	0x00000000	0.0
77	0x00000000	0.0
78	0x00000000	0.0
79	0x00000000	0.0
80	0x00000000	0.0
81	0x00000000	0.0
82	0x00000000	0.0
83	0x00000000	0.0
84	0x00000000	0.0
85	0x00000000	0.0
86	0x00000000	0.0
87	0x00000000	0.0
88	0x00000000	0.0
89	0x00000000	0.0
90	0x00000000	0.0
91	0x00000000	0.0
92	0x00000000	0.0
93	0x00000000	0.0
94	0x00000000	0.0
95	0x00000000	0.0
96	0x00000000	0.0
97	0x00000000	0.0
98	0x00000000	0.0
99	0x00000000	0.0
100	0x00000000	0.0
101	0x00000000	0.0
102	0x00000000	0.0
103	0x00000000	0.0
104	0x00000000	0.0
105	0x00000000	0.0
106	0x00000000	0.0
107	0x00000000	0.0
108	0x00000000	0.0
109	0x00000000	0.0
110	0x00000000	0.0
111	0x00000000	0.0
112	0x00000000	0.0
113	0x00000000	0.0
114	0x00000000	0.0
115	0x00000000	0.0
116	0x00000000	0.0
117	0x00000000	0.0
118	0x00000000	0.0
119	0x00000000	0.0
120	0x00000000	0.0
121	0x00000000	0.0
122	0x00000000	0.0
123	0x00000000	0.0
124	0x00000000	0.0
125	0x00000000	0.0
126	0x00000000	0.0
127	0x00000000	0.0

Func/sequential_27/lstm_21/StatefulPartitionedCall/input/_6 f4 [512]
0	0x3d909d3f	0.07061242
1	0x3d2701ec	0.040773317
2	0x3d1f41da	0.03888116
3	0x3d3b363c	0.04570602
4	0x3da545cc	0.08069953
5	0x3d681a78	0.056665868
6	0x3d8a5875	0.06755153
7	0x3d850ca6	0.06496553
8	0x3d592cb4	0.053021148
9	0x3d1ef18a	0.03880457
10	0x3d923ddb	0.07140704
11	0x3d1191c9	0.035539422
12	0x3dafe282	0.08588125
13	0x3d7d70e2	0.06187523
14	0x3d08202a	0.0332338
15	0x3cc54b6b	0.024083814
16	0x3d8e8875	0.06959621
17	0x3d37cbaf	0.044871982
18	0x3d061786	0.032737277
19	0x3d65c5be	0.056096785
20	0x3d954e2e	0.07290302
21	0x3db5ac81	0.08870793
22	0x3d821aed	0.06352792
23	0x3dda91c4	0.10672334
24	0x3d863df0	0.065547824
25	0x3d36247a	0.04446838
26	0x3d546ea6	0.051863335
27	0x3d5eb877	0.054375138
28	0x3d18a9e4	0.037271395
29	0x3dd21fee	0.10259996
30	0x3d9c8d4d	0.076441385
31	0x3d371218	0.04469499
32	0x3d5b1ff7	0.05349728
33	0x3d067731	0.032828514
34	0x3d43bbee	0.047786646
35	0x3d8dbe61	0.069210775
36	0x3d083c00	0.033260345
37	0x3d8a1935	0.06743089
38	0x3d78802b	0.060669105
39	0x3d91141f	0.07083916
40	0x3d342b4d	0.043986607
41	0x3d39eb81	0.04539061
42	0x3d04480e	0.03229528
43	0x3d25eafa	0.040507294
44	0x3d8432e3	0.06455018
45	0x3d4f3650	0.050588906
46	0x3d2c15ee	0.0420131
47	0x3d3e7783	0.046500694
48	0x3d46eac7	0.048563745
49	0x3d961dde	0.073299155
50	0x3d442237	0.047884192
51	0x3d6acae9	0.057322416
52	0x3da014f6	0.07816498
53	0x3d919cbe	0.07109974
54	0x3d2b1808	0.041770965
55	0x3dd3ae29	0.10335953
56	0x3d1f366a	0.038870253
57	0x3d448199	0.047975156
58	0x3d808378	0.06275076
59	0x3caf7794	0.021419324
60	0x3d397732	0.04527969
61	0x3db98e4a	0.090603426
62	0x3dd8d20e	0.1058694
63	0x3dc99284	0.09842399
64	0x3d838673	0.064221285
65	0x3d970f51	0.07375968
66	0x3c95d08f	0.018287925
67	0x3d728964	0.059213057
68	0x3d4b3632	0.04961223
69	0x3cd62a48	0.026143208
70	0x3db10b1c	0.08644697
71	0x3d3a10f4	0.045426324
72	0x3d0c7ad5	0.03429683
73	0x3d58fa76	0.052973233
74	0x3db70a4d	0.089375116
75	0x3dd25742	0.10270549
76	0x3dc8f6c4	0.09812692
77	0x3dac1903	0.08403208
78	0x3d4d3f43	0.05010916
79	0x3d768747	0.060187604
80	0x3d7bf6ce	0.06151467
81	0x3d3fbd75	0.04681154
82	0x3db901f8	0.09033579
83	0x3d784c55	0.06061967
84	0x3d20171b	0.039084535
85	0x3d2ab740	0.041678667
86	0x3d7e36c2	0.06206394
87	0x3d415d8b	0.04720835
88	0x3d741c5e	0.059597366
89	0x3d6a8e83	0.057264816
90	0x3d1d2fe5	0.038375754
91	0x3d106d16	0.035260282
92	0x3d8820c6	0.06646876
93	0x3d52b676	0.05144354
94	0x3d74a1c5	0.059724588
95	0x3d862b58	0.06551236
96	0x3d975ee8	0.07391149
97	0x3d8a0755	0.0673968
98	0x3dbda8d6	0.092607185
99	0x3cfc72e0	0.030816495
100	0x3d6eaebb	0.058272105
101	0x3da89c33	0.08232918
102	0x3ca1bec5	0.019744286
103	0x3d0dd53a	0.034627177
104	0x3cd3824d	0.025818968
105	0x3dd28790	0.10279763
106	0x3d9c5b92	0.07634653
107	0x3d903f02	0.07043268
108	0x3d632575	0.055455644
109	0x3d35743f	0.044300314
110	0x3d69163f	0.05690598
111	0x3d579389	0.052630935
112	0x3d8ef5c3	0.06980469
113	0x3d1df531	0.03856391
114	0x3dab5a62	0.083668485
115	0x3d481bb0	0.04885453
116	0x3d56ce94	0.052443102
117	0x3d6ad294	0.05732973
118	0x3d960fe0	0.07327247
119	0x3ceff1f0	0.02929017
120	0x3d6e2533	0.058140945
121	0x3d53d685	0.051718254
122	0x3d838ceb	0.06423362
123	0x3d6776cd	0.05650978
124	0x3d8b3442	0.06797077
125	0x3da2f6fa	0.07957263
126	0x3d96995e	0.07353471
127	0x3dca2417	0.09870165
128	0x3f81be75	1.0136248
129	0x3f817995	1.0115229
130	0x3f823a2f	1.0174006
131	0x3f81d6ce	1.0143678
132	0x3f810085	1.0078284
133	0x3f81e34b	1.0147489
134	0x3f81f27d	1.0152127
135	0x3f7f6fb6	0.9977983
136	0x3f833476	1.0250385
137	0x3f82fedc	1.0234027
138	0x3f811513	1.0084556
139	0x3f81ae3a	1.0131295
140	0x3f81b023	1.0131878
141	0x3f840aa6	1.031575
142	0x3f81e3b6	1.0147617
143	0x3f819021	1.012211
144	0x3f874f80	1.0571136
145	0x3f812ec6	1.0092399
146	0x3f817ecc	1.011682
147	0x3f81d39f	1.0142707
148	0x3f82e51b	1.0226167
149	0x3f84b6cd	1.0368286
150	0x3f818851	1.0119725
151	0x3f8676e0	1.0505028
152	0x3f8189b8	1.0120153
153	0x3f833747	1.0251244
154	0x3f809d88	1.0048075
155	0x3f802c4e	1.0013521
156	0x3f81e726	1.0148666
157	0x3f85142c	1.0396781
158	0x3f80d8ab	1.0066122
159	0x3f80baf5	1.0057055
160	0x3f7fe0b4	0.99952245
161	0x3f833fc1	1.0253831
162	0x3f820a12	1.0159323
163	0x3f7f36b8	0.9969287
164	0x3f81fd9b	1.0155519
165	0x3f8360d1	1.0263921
166	0x3f8398cf	1.0281008
167	0x3f823fdd	1.017574
168	0x3f821bb2	1.0164702
169	0x3f81bbf1	1.013548
170	0x3f827b80	1.0193939
171	0x3f81ca24	1.0139813
172	0x3f8126fd	1.0090023
173	0x3f7f70f4	0.9978173
174	0x3f815dab	1.010671
175	0x3f80afae	1.0053613
176	0x3f808a77	1.0042256
177	0x3f82e8a1	1.0227243
178	0x3f822a8d	1.0169235
179	0x3f851033	1.0395569
180	0x3f83280d	1.0246598
181	0x3f824d84	1.0179906
182	0x3f8178ea	1.0115025
183	0x3f85e5bb	1.0460733
184	0x3f8247cc	1.0178161
185	0x3f81a2f0	1.012785
186	0x3f822d83	1.0170139
187	0x3f8249dd	1.0178791
188	0x3f81fffb	1.0156244
189	0x3f82fad4	1.0232797
190	0x3f870137	1.0547246
191	0x3f821b4b	1.0164579
192	0x3f80e933	1.0071167
193	0x3f81d4a2	1.0143015
194	0x3f83562c	1.0260673
195	0x3f816228	1.010808
196	0x3f821720	1.0163307
197	0x3f81a25c	1.0127673
198	0x3f8355a5	1.0260512
199	0x3f84430e	1.0332963
200	0x3f81d92b	1.01444
201	0x3f80f2d4	1.0074105
202	0x3f830f47	1.0239037
203	0x3f88e988	1.0696268
204	0x3f85b227	1.0444993
205	0x3f836f35	1.0268313
206	0x3f85a791	1.0441762
207	0x3f8254b2	1.0182097
208	0x3f82188e	1.0163743
209	0x3f80ff90	1.0077991
210	0x3f86d4dd	1.0533711
211	0x3f80e706	1.0070503
212	0x3f8257e6	1.0183074
213	0x3f828e4b	1.0199674
214	0x3f81610a	1.0107739
215	0x3f82cd31	1.021887
216	0x3f82231b	1.0166963
217	0x3f80228a	1.001054
218	0x3f8026a2	1.001179
219	0x3f8528ce	1.0403078
220	0x3f81fed9	1.0155898
221	0x3f81f97e	1.0154264
222	0x3f801aed	1.0008217
223	0x3f85ec4e	1.046274
224	0x3f806ceb	1.0033239
225	0x3f81a3ad	1.0128075
226	0x3f84b2e8	1.0367098
227	0x3f817ec2	1.0116808
228	0x3f8113d1	1.0084172
229	0x3f84fd16	1.0389736
230	0x3f824515	1.0177332
231	0x3f82b928	1.0212755
232	0x3f81484e	1.0100191
233	0x3f8653aa	1.0494282
234	0x3f82bf96	1.0214717
235	0x3f82fd42	1.0233538
236	0x3f81c159	1.013713
237	0x3f82f243	1.0230182
238	0x3f8433fb	1.0328363
239	0x3f8175f7	1.0114125
240	0x3f7e0b16	0.99235666
241	0x3f82b44c	1.0211272
242	0x3f832a09	1.0247203
243	0x3f80e880	1.0070953
244	0x3f820405	1.0157477
245	0x3f834739	1.025611
246	0x3f80818e	1.0039537
247	0x3f82245c	1.0167346
248	0x3f81b940	1.0134659
249	0x3f810a19	1.0081207
250	0x3f81be3d	1.0136181
251	0x3f854bf7	1.0413808
252	0x3f7d6a03	0.98989886
253	0x3f811a79	1.0086204
254	0x3f832453	1.024546
255	0x3f8647dd	1.0490681

TensorArrayV2_1;sequential_27/lstm_21/StatefulPartitionedCall/TensorArrayV2_1 f4 [8, 1, 128]
0	0x00000000	0.0
1	0x00000000	0.0
2	0x00000000	0.0
3	0x00000000	0.0
4	0x00000000	0.0
5	0x00000000	0.0
6	0x00000000	0.0
7	0x00000000	0.0
8	0x00000000	0.0
9	0x00000000	0.0
10	0x00000000	0.0
11	0x00000000	0.0
12	0x00000000	0.0
13	0x00000000	0.0
14	0x00000000	0.0
15	0x00000000	0.0
16	0x00000000	0.0
17	0x00000000	0.0
18	0x00000000	0.0
19	0x00000000	0.0
20	0x00000000	0.0
21	0x00000000	0.0
22	0x00000000	0.0
23	0x00000000	0.0
24	0x00000000	0.0
25	0x00000000	0.0
26	0x00000000	0.0
27	0x00000000	0.0
28	0x00000000	0.0
29	0x00000000	0.0
30	0x00000000	0.0
31	0x00000000	0.0
32	0x00000000	0.0
33	0x00000000	0.0
34	0x00000000	0.0
35	0x00000000	0.0
36	0x00000000	0.0
37	0x00000000	0.0
38	0x00000000	0.0
39	0x00000000	0.0
40	0x00000000	0.0
41	0x00000000	0.0
42	0x00000000	0.0
43	0x00000000	0.0
44	0x00000000	0.0
45	0x00000000	0.0
46	0x00000000	0.0
47	0x00000000	0.0
48	0x00000000	0.0
49	0x00000000	0.0
50	0x00000000	0.0
51	0x00000000	0.0
52	0x00000000	0.0
53	0x00000000	0.0
54	0x00000000	0.0
55	0x00000000	0.0
56	0x00000000	0.0
57	0x00000000	0.0
58	0x00000000	0.0
59	0x00000000	0.0
60	0x00000000	0.0
61	0x00000000	0.0
62	0x00000000	0.0
63	0x00000000	0.0
64	0x00000000	0.0
65	0x00000000	0.0
66	0x00000000	0.0
67	0x00000000	0.0
68	0x00000000	0.0
69	0x00000000	0.0
70	0x00000000	0.0
71	0x00000000	0.0
72	0x00000000	0.0
73	0x00000000	0.0
74	0x00000000	0.0
75	0x00000000	0.0
76	0x00000000	0.0
77	0x00000000	0.0
78	0x00000000	0.0
79	0x00000000	0.0
80	0x00000000	0.0
81	0x00000000	0.0
82	0x00000000	0.0
83	0x00000000	0.0
84	0x00000000	0.0
85	0x00000000	0.0
86	0x00000000	0.0
87	0x00000000	0.0
88	0x00000000	0.0
89	0x00000000	0.0
90	0x00000000	0.0
91	0x00000000	0.0
92	0x00000000	0.0
93	0x00000000	0.0
94	0x00000000	0.0
95	0x00000000	0.0
96	0x00000000	0.0
97	0x00000000	0.0
98	0x00000000	0.0
99	0x00000000	0.0
100	0x00000000	0.0
101	0x00000000	0.0
102	0x00000000	0.0
103	0x00000000	0.0
104	0x00000000	0.0
105	0x00000000	0.0
106	0x00000000	0.0
107	0x00000000	0.0
108	0x00000000	0.0
109	0x00000000	0.0
110	0x00000000	0.0
111	0x00000000	0.0
112	0x00000000	0.0
113	0x00000000	0.0
114	0x00000000	0.0
115	0x00000000	0.0
116	0x00000000	0.0
117	0x00000000	0.0
118	0x00000000	0.0
119	0x00000000	0.0
120	0x00000000	0.0
121	0x00000000	0.0
122	0x00000000	0.0
123	0x00000000	0.0
124	0x00000000	0.0
125	0x00000000	0.0
126	0x00000000	0.0
127	0x00000000	0.0
128	0x00000000	0.0
129	0x00000000	0.0
130	0x00000000	0.0
131	0x00000000	0.0
132	0x00000000	0.0
133	0x00000000	0.0
134	0x00000000	0.0
135	0x00000000	0.0
136	0x00000000	0.0
137	0x00000000	0.0
138	0x00000000	0.0
139	0x00000000	0.0
140	0x00000000	0.0
141	0x00000000	0.0
142	0x00000000	0.0
143	0x00000000	0.0
144	0x00000000	0.0
145	0x00000000	0.0
146	0x00000000	0.0
147	0x00000000	0.0
148	0x00000000	0.0
149	0x00000000	0.0
150	0x00000000	0.0
151	0x00000000	0.0
152	0x00000000	0.0
153	0x00000000	0.0
154	0x00000000	0.0
155	0x00000000	0.0
156	0x00000000	0.0
157	0x00000000	0.0
158	0x00000000	0.0
159	0x00000000	0.0
160	0x00000000	0.0
161	0x00000000	0.0
162	0x00000000	0.0
163	0x00000000	0.0
164	0x00000000	0.0
165	0x00000000	0.0
166	0x00000000	0.0
167	0x00000000	0.0
168	0x00000000	0.0
169	0x00000000	0.0
170	0x00000000	0.0
171	0x00000000	0.0
172	0x00000000	0.0
173	0x00000000	0.0
174	0x00000000	0.0
175	0x00000000	0.0
176	0x00000000	0.0
177	0x00000000	0.0
178	0x00000000	0.0
179	0x00000000	0.0
180	0x00000000	0.0
181	0x00000000	0.0
182	0x00000000	0.0
183	0x00000000	0.0
184	0x00000000	0.0
185	0x00000000	0.0
186	0x00000000	0.0
187	0x00000000	0.0
188	0x00000000	0.0
189	0x00000000	0.0
190	0x00000000	0.0
191	0x00000000	0.0
192	0x00000000	0.0
193	0x00000000	0.0
194	0x00000000	0.0
195	0x00000000	0.0
196	0x00000000	0.0
197	0x00000000	0.0
198	0x00000000	0.0
199	0x00000000	0.0
200	0x00000000	0.0
201	0x00000000	0.0
202	0x00000000	0.0
203	0x00000000	0.0
204	0x00000000	0.0
205	0x00000000	0.0
206	0x00000000	0.0
207	0x00000000	0.0
208	0x00000000	0.0
209	0x00000000	0.0
210	0x00000000	0.0
211	0x00000000	0.0
212	0x00000000	0.0
213	0x00000000	0.0
214	0x00000000	0.0
215	0x00000000	0.0
216	0x00000000	0.0
217	0x00000000	0.0
218	0x00000000	0.0
219	0x00000000	0.0
220	0x00000000	0.0
221	0x00000000	0.0
222	0x00000000	0.0
223	0x00000000	0.0
224	0x00000000	0.0
225	0x00000000	0.0
226	0x00000000	0.0
227	0x00000000	0.0
228	0x00000000	0.0
229	0x00000000	0.0
230	0x00000000	0.0
231	0x00000000	0.0
232	0x00000000	0.0
233	0x00000000	0.0
234	0x00000000	0.0
235	0x00000000	0.0
236	0x00000000	0.0
237	0x00000000	0.0
238	0x00000000	0.0
239	0x00000000	0.0
240	0x00000000	0.0
241	0x00000000	0.0
242	0x00000000	0.0
243	0x00000000	0.0
244	0x00000000	0.0
245	0x00000000	0.0
246	0x00000000	0.0
247	0x00000000	0.0
248	0x00000000	0.0
249	0x00000000	0.0
250	0x00000000	0.0
251	0x00000000	0.0
252	0x00000000	0.0
253	0x00000000	0.0
254	0x00000000	0.0
255	0x00000000	0.0

sequential_27/output/BiasAdd/ReadVariableOp f4 [3]
0	0xbca80e94	-0.020514764
1	0xbcfb7c68	-0.03069897
2	0x3d8167f7	0.06318658

MatMul_1 f4 [512, 128]
0	0x3daa7800	0.083236694
1	0x3dc177a9	0.094466515
2	0x3d3cdef2	0.046111055
3	0x3dc9f385	0.09860901
4	0xbd0ea96b	-0.03482954
5	0x3cae6d27	0.021292282
6	0x3d9a5656	0.075359985
7	0x3d92767e	0.07151507
8	0x3db4714a	0.08810671
9	0xbd105c93	-0.035244536
10	0xbda10142	-0.07861568
11	0x3dce21ab	0.100650154
12	0xbd999358	-0.07498807
13	0xbd5e0094	-0.05419977
14	0xbdf0207d	-0.11724947
15	0x3dab2e8d	0.08358488
16	0xbda73393	-0.08164134
17	0xbd3c26f6	-0.045935594
18	0xbde4bb8e	-0.11168586
19	0x3da351f0	0.07974613
20	0x3b99af91	0.0046901186
21	0x3ccfd83c	0.025371663
22	0x3d1efaef	0.038813528
23	0xbd406ab0	-0.046976745
24	0x3d4ddda5	0.050260205
25	0x3d32e9bf	0.04367995
26	0x3d758927	0.05994525
27	0x3dbf00d1	0.093263276
28	0x3d7e2608	0.06204799
29	0xbbc24762	-0.0059289197
30	0x3cc79ce3	0.024366802
31	0xbe342789	-0.17593206
32	0xbcd279c2	-0.025692824
33	0xbde4ac57	-0.11165684
34	0xbd11c869	-0.035591517
35	0x3d8d6560	0.06904101
36	0xbe02228b	-0.1270849
37	0xbcb1b08f	-0.021690635
38	0x39f86496	0.00047377188
39	0xbde8301d	-0.11337302
40	0x3db87650	0.09006941
41	0x3d2b0975	0.041757066
42	0x3cc5960c	0.0241194
43	0xbc9a3c41	-0.01882756
44	0x3d0eec2b	0.034893196
45	0x3dcdd882	0.10051061
46	0xbb85e28c	-0.0040858444
47	0xbda6eb67	-0.08150368
48	0x3e0335bf	0.12813471
49	0x3e0582eb	0.13038222
50	0x3d578210	0.05261427
51	0x3dd2a1a3	0.10284736
52	0x3c644042	0.013931336
53	0x3daa0acf	0.08302843
54	0x3d328235	0.043581206
55	0x3d47d739	0.048789237
56	0x3cbe6930	0.023243517
57	0x3d8b7dee	0.068111286
58	0xbdcc7342	-0.09982921
59	0x3d2b0a45	0.04175784
60	0x3d953e60	0.07287288
61	0x3c721a9d	0.014776853
62	0x3d883ff5	0.06652824
63	0xbdc356d0	-0.095380425
64	0x3ddee6f0	0.108838916
65	0xbdb0cb11	-0.08632482
66	0xbd5b1880	-0.053490162
67	0x3dc63fcf	0.09680139
68	0x3b9d46fb	0.0047997213
69	0xbd128d2a	-0.035779156
70	0x3e1809d6	0.14847502
71	0xbdef06f6	-0.116712496
72	0x3dc4f3a1	0.09616781
73	0x3da20a84	0.07912162
74	0xbd48201c	-0.048858747
75	0x3cf2e5c3	0.029650575
76	0x3d80cb4b	0.06288775
77	0x3adec1f8	0.0016995063
78	0xbd1c4a14	-0.038156584
79	0x3df3eb2b	0.11910089
80	0x3b3bd28f	0.0028659438
81	0x3e113e03	0.14183812
82	0xbca06dc0	-0.019583583
83	0x3e01e5de	0.12685344
84	0xbe170158	-0.14746606
85	0x3d58a797	0.0528942
86	0xbd1bd5fb	-0.038045865
87	0x3d814d7f	0.06313609
88	0x3d4507b8	0.048103064
89	0x3e219190	0.15778184
90	0x3e197a35	0.14988025
91	0x3d47862e	0.048711948
92	0x3dc86f5f	0.09786867
93	0xbce9c19b	-0.028534701
94	0x3cbdd0fb	0.023170939
95	0x3d54dee4	0.051970378
96	0x3dd23f6f	0.10266005
97	0x3ddb51b7	0.10708945
98	0xbc1632d3	-0.009167391
99	0xbe204e5c	-0.15654892
100	0xbd0223cb	-0.031772416
101	0xbcc0091f	-0.02344185
102	0x3e0b58df	0.1360812
103	0x3d66c9a1	0.056344632
104	0xbe002de2	-0.12517503
105	0xbd7559fa	-0.05990026
106	0x3cad41fd	0.02114963
107	0x3cb98149	0.022644656
108	0xbc24de54	-0.010062773
109	0x3e0de4bb	0.13856785
110	0xbd178638	-0.036993235
111	0x3dc338e8	0.095323384
112	0x3b7f4ae2	0.0038954546
113	0x3e01fae2	0.1269336
114	0x3c6a5e8a	0.014304766
115	0xbdb6f4de	-0.089334235
116	0x3d8583cb	0.06519278
117	0xbe0e496a	-0.13895193
118	0xbd6088f8	-0.054818124
119	0xbd40b21c	-0.04704486
120	0xbd0346c3	-0.032049906
121	0x3ceaac05	0.028646478
122	0xbd4d3872	-0.05010266
123	0x3dedb2a9	0.11606342
124	0xbdceea1e	-0.10103248
125	0xbe05987d	-0.13046451
126	0x3cfd9732	0.030955885
127	0xbb10aff2	-0.0022077528
128	0x3d031852	0.032005616
129	0x3d904974	0.0704526
130	0x3d86686f	0.06562888
131	0x3d4a73ce	0.049426846
132	0x3d1d5baa	0.038417496
133	0xbc11c87d	-0.008897898
134	0x3d6477db	0.055778366
135	0xbd41e4eb	-0.047337454
136	0x3cc2d691	0.023783954
137	0xbcf4950e	-0.029856231
138	0xbd88571e	-0.06657241
139	0xbc9eb405	-0.01937295
140	0x3bf3080e	0.0074167317
141	0x3ce95c94	0.028486528
142	0xbe082954	-0.13297015
143	0x3cd993f7	0.026559813
144	0xbd1879e4	-0.03722562
145	0x3c84dabe	0.016217586
146	0xbdc0e656	-0.09418933
147	0x3d25c582	0.04047156
148	0xbc9a0609	-0.018801706
149	0xbda2c258	-0.079472244
150	0xbc77e766	-0.015130853
151	0xbd842493	-0.064522885
152	0xbdc76446	-0.097359225
153	0x3d875145	0.06607298
154	0x3da52e56	0.080654785
155	0x3daa85c3	0.08326294
156	0x3c6403e3	0.013916942
157	0xbccacdaf	-0.02475628
158	0xbda1e91c	-0.0790579
159	0xbe3b7e5a	-0.18309918
160	0xbd5aab96	-0.053386293
161	0xbd43cc91	-0.04780251
162	0xbdd9703f	-0.10617112
163	0x3b8b9597	0.004259776
164	0x3b9349dc	0.0044948887
165	0x3daeb358	0.08530301
166	0xbbd46b7b	-0.006482539
167	0xbd9306d2	-0.07179035
168	0x3dc702f9	0.09717364
169	0x3db7426d	0.089482166
170	0x3dea4c42	0.11440326
171	0xbd9a43b0	-0.075324416
172	0xbd497995	-0.049188215
173	0x3ca7140d	0.020395303
174	0x3db2ef7b	0.087370835
175	0xbd0ec548	-0.03485611
176	0xbd15363c	-0.036428675
177	0x3ccc0e91	0.02490929
178	0x3d1a13a6	0.037616394
179	0x3c8cd0f2	0.017189477
180	0xbc36a172	-0.01114689
181	0xbcb8debc	-0.022567146
182	0x3ca744bd	0.02041852
183	0x3d29a909	0.04142097
184	0x3c062f10	0.0081899315
185	0x3d604f94	0.05476339
186	0xbda592d0	-0.08084643
187	0x3d8f8e91	0.07009614
188	0x3d9eba8a	0.07750423
189	0xbdca3656	-0.09873645
190	0x3cada8a3	0.021198576
191	0x3d9c7784	0.07639983
192	0xbca3af32	-0.019981
193	0x3b89cc83	0.004205288
194	0x3d5a9e2e	0.05337351
195	0x3d92df20	0.07171464
196	0xbd53024e	-0.05151587
197	0x3c597b59	0.013274037
198	0x3d496732	0.04917068
199	0xbde2bf3a	-0.1107163
200	0xbccc94cb	-0.024973294
201	0x3d8009ce	0.0625187
202	0xbd551103	-0.052018177
203	0x3d852415	0.06501023
204	0x3d73c056	0.059509598
205	0xbc0bd480	-0.008534551
206	0xbc5c4a01	-0.013445378
207	0x3c8ef18c	0.017449163
208	0x3daf5e7b	0.085629426
209	0x3d8f2274	0.06988993
210	0x3df96069	0.12176592
211	0x3d175175	0.036942918
212	0xbcf8e3ec	-0.03038212
213	0x3c2860e2	0.010277005
214	0xbd721214	-0.059099272
215	0x3ce68253	0.028138315
216	0x3d27ac45	0.040935773
217	0x3d357b5d	0.0443071
218	0x3e2fe29d	0.1717629
219	0x3ce432f8	0.027856335
220	0x3d3f9957	0.046777096
221	0xbd33f66a	-0.04393617
222	0x3d62cd7a	0.05537174
223	0x3cbb92b0	0.022897094
224	0xbb99b723	-0.004691021
225	0x3c80f697	0.015742583
226	0x3d17afb2	0.03703279
227	0xbdbcb335	-0.092138685
228	0xbdaf5745	-0.08561567
229	0xbd0b801e	-0.03405773
230	0x3d8218b4	0.06352368
231	0x3a70ba94	0.0009183076
232	0x3b943613	0.0045230477
233	0x3d1659d0	0.036706746
234	0x3d6d2a8f	0.057901915
235	0x3dd51a79	0.1040544
236	0x3de68052	0.11254944
237	0x3dca7b54	0.09886804
238	0xbdb6b8de	-0.08921979
239	0x3d20acc8	0.039227277
240	0x3c589ccc	0.013220977
241	0x3d0c86e8	0.034308344
242	0x3d4ae1ed	0.049531866
243	0xbc694590	-0.014237776
244	0x3d95a868	0.073075116
245	0x3d0399cb	0.03212909
246	0xbded466e	-0.11585699
247	0xbe16334c	-0.14668006
248	0xbdc3fa22	-0.095691934
249	0x3c676f20	0.014125615
250	0xbd31709c	-0.043320283
251	0x3db92edd	0.090421416
252	0xbd34c965	-0.044137377
253	0xbe00b75b	-0.12569945
254	0xbd046982	-0.032327183
255	0x3d9986e9	0.07496435

MatMul f4 [512, 100]
0	0xbccaa456	-0.024736565
1	0xbd2ae6ad	-0.041723896
2	0x3d84eab9	0.06490082
3	0xbde9773c	-0.11399695
4	0x3d442b3a	0.047892787
5	0xbe08248b	-0.1329519
6	0x3d15a81f	0.036537286
7	0x3e2de351	0.16981246
8	0x3da62423	0.08112361
9	0xbdc7e447	-0.09760337
10	0x3df2a81a	0.11848469
11	0x3bbec714	0.005822072
12	0xbd3fc2b6	-0.04681655
13	0xbde23cee	-0.11046778
14	0xbd9c3896	-0.076279804
15	0xbdfa0bc6	-0.12209277
16	0xbc8e9343	-0.017404204
17	0xbe6abaa2	-0.22922757
18	0x3d9c69f1	0.07637394
19	0x3d0f0744	0.03491904
20	0xbdf1d6cc	-0.118085474
21	0xbe2e9c92	-0.17051914
22	0x3e16e3b0	0.14735293
23	0xbe2a3da3	-0.16625075
24	0xbcfde7e7	-0.030994369
25	0x3e47f9b9	0.19528855
26	0x3dab0b85	0.083518066
27	0x3d1fc321	0.03900445
28	0xbc01c578	-0.007920615
29	0xbdc631eb	-0.0967749
30	0x3d9a489e	0.07533382
31	0x3d8685ea	0.06568511
32	0xbc000350	-0.00781329
33	0xbd95d96c	-0.073168606
34	0xbdefee93	-0.11715426
35	0x3d6e92da	0.058245517
36	0x3b96cb59	0.0046018776
37	0x3db36e15	0.08761231
38	0x3d939468	0.072060406
39	0xbcc9eea3	-0.024649924
40	0xbd0c58f0	-0.034264505
41	0xbd250b39	-0.040293906
42	0x3e0ed57e	0.13948628
43	0xbe214d4f	-0.15752147
44	0xbdfdd1ed	-0.12393556
45	0x3c7b3fc8	0.015335031
46	0xbd288a15	-0.04114731
47	0x3d800b08	0.06252104
48	0xbd3df92a	-0.0463802
49	0xbde329ca	-0.11091955
50	0xbe0376d5	-0.128383
51	0xbe3ee2b1	-0.18641163
52	0xbd88860a	-0.06666191
53	0x3c5350c2	0.012897672
54	0xbc98886a	-0.018619735
55	0xbe2961bd	-0.1654119
56	0x3e023e77	0.12719141
57	0xbcc56318	-0.024095103
58	0x3dab9a58	0.08379048
59	0xbbfa9c94	-0.00764806
60	0x3c8e3192	0.017357621
61	0xbe0c23ba	-0.13685504
62	0xbb474b4c	-0.003040987
63	0xbe05c9b0	-0.13065219
64	0x3e596f9c	0.21233982
65	0xbd3758a9	-0.044762287
66	0xbd8ab99f	-0.06773686
67	0x3de5ac7e	0.11214541
68	0xbd0c06c1	-0.03418613
69	0xbe22602f	-0.15857004
70	0x3d8123b3	0.06305637
71	0x3cf85bf7	0.03031729
72	0xbd813508	-0.06308943
73	0xbe10f57d	-0.14156146
74	0xbdcbe6ae	-0.09956108
75	0x3e452ca2	0.19255307
76	0xbd186752	-0.03720791
77	0xbd479aa0	-0.048731446
78	0x3d9e8f18	0.07742137
79	0xbe06ca8e	-0.13163206
80	0x3bb416b2	0.0054958696
81	0xbd88bac1	-0.066762455
82	0xbe25bbf3	-0.16184978
83	0x3b0c7a54	0.0021435218
84	0xbd3daf17	-0.046309557
85	0x3ade9ffc	0.0016984935
86	0xbd3b32ca	-0.045702733
87	0x3df83f99	0.12121505
88	0xbd8e6409	-0.06952674
89	0x3d885f24	0.06658772
90	0x3c019be4	0.007910702
91	0xbe29e822	-0.16592458
92	0x3e1ce9c8	0.15323555
93	0x3c95fd63	0.0183093
94	0xbd6a576f	-0.05721229
95	0xbd9c2b42	-0.07625438
96	0x3d8af227	0.06784468
97	0xbd56910c	-0.05238442
98	0xbe55dfe8	-0.20886195
99	0xbe1970e1	-0.14984466
100	0x3b25cdb6	0.0025299615
101	0x3d550d47	0.052014615
102	0xbdfc34db	-0.12314769
103	0x3e38d52f	0.18050073
104	0x3bf82910	0.0075732544
105	0xbe1c4052	-0.15258911
106	0x3d2371c6	0.039903425
107	0xbca3d95d	-0.020001108
108	0xbd4572ea	-0.048205294
109	0x3db4125a	0.08792563
110	0xbd8a7d27	-0.06762152
111	0x3d843fd0	0.06457484
112	0xbe2d4393	-0.16920309
113	0x3d88bb3d	0.06676338
114	0x3de78bd9	0.11305971
115	0xbdebb84d	-0.11509762
116	0x3e3ad0d0	0.18243718
117	0x3da2b884	0.0794535
118	0xbdb7c526	-0.0897315
119	0x3d8e05f7	0.069347315
120	0xbd4dc392	-0.05023534
121	0x3d953066	0.07284622
122	0x3c8f2494	0.017473496
123	0xbbbb002f	-0.005706809
124	0xbae6579d	-0.0017573718
125	0xbda95afc	-0.08269307
126	0xbe02650a	-0.12733856
127	0xbcf943b8	-0.030427799
128	0xbd35bf2e	-0.044371776
129	0x3df34bfd	0.11879728
130	0xbd84d9fa	-0.06486888
131	0xbb3babaa	-0.0028636255
132	0x3d9862a7	0.074406914
133	0x3ddd1a50	0.10796034
134	0x3d3b1a89	0.045679603
135	0xbc7a95fa	-0.015294546
136	0x3d2ae9fd	0.041727055
137	0x3df53971	0.11973847
138	0xbd95b199	-0.07309265
139	0xbdaf7561	-0.0856731
140	0x3e05fa19	0.13083686
141	0xbd46659e	-0.048436753
142	0x3ce95178	0.02848123
143	0xbd8da5dc	-0.06916401
144	0x3e3356ce	0.17513582
145	0xbd571d40	-0.05251813
146	0x3d566f03	0.052351963
147	0xbdb8e5ff	-0.09028243
148	0x3e1a75f4	0.15084058
149	0x3d0ae1fe	0.03390693
150	0xbdfdead7	-0.12398308
151	0xbcf18821	-0.029483857
152	0xbe257563	-0.1615806
153	0xbd88291f	-0.06648468
154	0x3d35f4b0	0.044422805
155	0x3dcbe94b	0.099566065
156	0xbd2f6f93	-0.042831015
157	0xbda96ffd	-0.08273313
158	0xbdee182a	-0.11625703
159	0x3c9dbc1d	0.019254738
160	0x3be1c432	0.0068898434
161	0xbdc9629e	-0.09833263
162	0x3d1f8282	0.03894282
163	0x3ce9c9d4	0.028538622
164	0xbdc082f8	-0.0939998
165	0xbcdd2cd3	-0.026998913
166	0x3e2cf1b0	0.16889071
167	0x3d033fdb	0.03204332
168	0x3e1b3c8f	0.1515982
169	0x3d2a8c91	0.04163796
170	0x3dc0fc2e	0.094230995
171	0x3e0308c6	0.12796316
172	0xbc98936b	-0.018624982
173	0x3d35c7c5	0.04437997
174	0x3c2f1d3e	0.010688124
175	0xbcf24c5a	-0.029577423
176	0x3d36a050	0.04458648
177	0xbcf8e246	-0.030381333
178	0xbd9ba8ba	-0.076005414
179	0x3ce39642	0.02778161
180	0x3cf786f7	0.030215723
181	0x3d31e9fa	0.043436028
182	0x3dbb10df	0.09134077
183	0x3d755a7f	0.059900757
184	0xbc21f5af	-0.009885236
185	0xbdc39c30	-0.09551275
186	0x3c5540ef	0.01301597
187	0x3d18f074	0.03733869
188	0x3dd68b57	0.10475796
189	0xbd49ebf5	-0.04929729
190	0xbce52a20	-0.027974188
191	0x3c1b0e2c	0.009463828
192	0xbcf6815d	-0.030090982
193	0x3dbef37a	0.09323783
194	0x3e11fd98	0.14256895
195	0x3cd719bc	0.026257388
196	0xbca3c78c	-0.019992612
197	0xbb0e226e	-0.0021688002
198	0x3caceb4e	0.021108296
199	0xbc59129b	-0.013249065
200	0x3c25497a	0.010088319
201	0x3df9df82	0.12200834
202	0xbdcb38f0	-0.09922969
203	0x3dab66b7	0.08369201
204	0x3c6f8f4d	0.014621568
205	0xbd51e1b9	-0.051240657
206	0xbdbdb24a	-0.092625216
207	0xbd7b3cbb	-0.061337214
208	0xbdae0470	-0.0849694
209	0x3e4f51c8	0.20246041
210	0x39cd9e30	0.00039218506
211	0x3e01fbfb	0.12693779
212	0x3ce61b43	0.028089171
213	0x3da984f0	0.08277309
214	0x3d987253	0.074436806
215	0x3d440474	0.04785581
216	0x3d971cc2	0.07378532
217	0xbd91fb64	-0.07128027
218	0xbe1b82ad	-0.15186568
219	0x3e10d200	0.14142609
220	0x3c87765e	0.016535934
221	0xbc4fe7ef	-0.012689575
222	0x3da25e03	0.079280876
223	0x3e41243a	0.18861476
224	0x3dbde525	0.092722215
225	0x3ce8bc35	0.028410057
226	0x3d333a16	0.043756567
227	0xbddbedc3	-0.10738709
228	0xbe0e9d07	-0.13927089
229	0x3dde67e2	0.10859658
230	0xbd8721c4	-0.06598237
231	0xbcdeae8a	-0.027182836
232	0x3d75fbe4	0.060054675
233	0xbd826955	-0.06367747
234	0x3d82a559	0.06379194
235	0x3db358cc	0.08757171
236	0xbdbefd2a	-0.09325631
237	0xbcce791a	-0.02520423
238	0x3ca09d48	0.019606248
239	0x3da64e45	0.081203975
240	0x3d8401a3	0.06445625
241	0xbd45a4ce	-0.048252873
242	0xbdcd9ec6	-0.10040049
243	0x3d9bc085	0.076050796
244	0x3d5b4e03	0.053541195
245	0xbd4dd1a1	-0.050248746
246	0x3d674be8	0.056468874
247	0xbe201ecb	-0.15636747
248	0x3e19b7d1	0.15011527
249	0x3cbd560b	0.023112318
250	0x3da6ae82	0.081387535
251	0x3da29e14	0.07940307
252	0xbd4dc2e0	-0.050234675
253	0xbc871d14	-0.016493358
254	0x3c63640c	0.0138788335
255	0x3b2950af	0.0025835445

sequential_27/output/MatMul f4 [3, 128]
0	0x3e98d4b9	0.29849795
1	0xbe26affd	-0.16278072
2	0xbdc7b4eb	-0.09751304
3	0x3e7d0fd7	0.24713074
4	0x3e2ca431	0.16859509
5	0x3e8a5d61	0.27024367
6	0x3e0053f9	0.12532033
7	0x3e6f04c2	0.23341659
8	0xbe8acdd6	-0.27110165
9	0xbe1b598d	-0.1517088
10	0x3dc47685	0.09592918
11	0x3e2994b9	0.1656064
12	0x3e3ea90f	0.18619178
13	0x3e87bf66	0.26513213
14	0xbdaa70cd	-0.08322296
15	0x3e83cdca	0.25742942
16	0x3e8a63dc	0.27029312
17	0xbc8bcca6	-0.017065357
18	0xbd5de92b	-0.054177444
19	0x3e45737b	0.19282334
20	0xbdc42a90	-0.09578431
21	0xbddced4f	-0.107874505
22	0xbe5764ca	-0.21034542
23	0x3e38a82d	0.18032904
24	0x3de3ed27	0.111292176
25	0x3de0a344	0.109686404
26	0x3c8eceb8	0.017432556
27	0xbe6dc693	-0.23220281
28	0xbdadf3f2	-0.084937945
29	0x3e03d2af	0.12873338
30	0x3c28a56e	0.010293348
31	0x3e30eb2f	0.17277215
32	0xbe982c45	-0.29721275
33	0x3c885a78	0.016644701
34	0xbdf49c4e	-0.11943875
35	0xbe57311e	-0.2101483
36	0xbc161c03	-0.009161952
37	0xbe7348f8	-0.23758304
38	0xbe4a1c4c	-0.19737357
39	0xbe72afe8	-0.23699915
40	0xbdc568c2	-0.096391216
41	0x3dc8c30e	0.09802829
42	0xbd921997	-0.07133787
43	0xbd2829f6	-0.041055642
44	0x3c50a7b2	0.012735294
45	0xbe54ebd9	-0.20793094
46	0x3d9d6773	0.07685747
47	0x3de84c28	0.11342651
48	0xbdfee74e	-0.124464616
49	0x3e7cfefc	0.24706644
50	0x3dc267f5	0.094924845
51	0x3e84e798	0.25957942
52	0x3e6498c5	0.22323902
53	0xbd97c817	-0.07411211
54	0x3e74af72	0.23895052
55	0xbe075a7e	-0.13218114
56	0xbd5c7281	-0.053820137
57	0xbe24a4ff	-0.16078566
58	0x3e698c06	0.22807321
59	0x3e4d3c97	0.20042644
60	0x3e3e8e2e	0.18608925
61	0x3ea0ac26	0.3138134
62	0xbdd8a567	-0.10578423
63	0xbe6d947b	-0.23201172
64	0xbe90a12f	-0.28247973
65	0xbe2edbbf	-0.17076014
66	0xbde7e452	-0.113228455
67	0xbdf8b796	-0.12144391
68	0xbe8733d4	-0.2640673
69	0xbde261f9	-0.11053843
70	0xbe91fb63	-0.28512105
71	0x3cc3c7ec	0.023899041
72	0x3e649be9	0.223251
73	0xbe491f33	-0.19640808
74	0xbe1072be	-0.1410627
75	0xbe19b551	-0.15010573
76	0xbe59b2e5	-0.21259649
77	0xbd281670	-0.041037023
78	0xbe1acc7f	-0.15117072
79	0x3dac4e1d	0.084133364
80	0x3e9ef30b	0.31044802
81	0x3cb7ef9e	0.022453126
82	0xbe4b4e32	-0.19854048
83	0xbe8a1fcd	-0.26977387
84	0xbd2d62fa	-0.04233072
85	0x3c9ec36d	0.019380296
86	0x3e474d4e	0.19463083
87	0x3e4e5b09	0.20151915
88	0x3e7ea98b	0.24869363
89	0xbe4a367b	-0.19747345
90	0x3bac0ab8	0.005250301
91	0x3e09782a	0.13424745
92	0x3e791117	0.24322926
93	0xbe7dae02	-0.2477341
94	0x3d98edf1	0.07467259
95	0x3e716658	0.23574197
96	0x3e7172f6	0.2357901
97	0xbe03103b	-0.1279916
98	0x3e738b99	0.23783721
99	0xbcc2e555	-0.023790995
100	0xbe5ed829	-0.21762146
101	0x3d9050f7	0.07046693
102	0x3c5c57d1	0.013448671
103	0xbb61bc3f	-0.0034444479
104	0xbe18df5d	-0.14928956
105	0x3e89a620	0.26884556
106	0xbe9d2aff	-0.30696866
107	0x3df0a220	0.11749673
108	0xbdbf4bd4	-0.09340635
109	0x3e3c7c96	0.18406901
110	0x3d348ada	0.04407773
111	0x3e976aaa	0.29573566
112	0x3e33afa8	0.17547476
113	0x3e381c46	0.17979535
114	0xbe1c7c75	-0.15281852
115	0xbe789ac3	-0.24277787
116	0x3e447910	0.19186807
117	0x3dc5b200	0.096530914
118	0x3e498241	0.19678594
119	0x3d666c13	0.05625541
120	0xbe6e5dc5	-0.23277958
121	0xbe0b9d2d	-0.13634177
122	0x3d554724	0.052069798
123	0x3c2d375c	0.010572281
124	0x3e952f54	0.2913767
125	0x3e54c967	0.20779954
126	0x3e95bdf3	0.29246482
127	0x3e93ac27	0.2884228
128	0x3cdfd4c6	0.027323138
129	0x3d38dc94	0.045132235
130	0x3d0a5466	0.033771895
131	0xbb700b90	-0.0036627986
132	0xbe576588	-0.21034825
133	0xbc1793d3	-0.009251553
134	0xbe951315	-0.2911612
135	0xbe95e5de	-0.29276937
136	0x3dad0d18	0.08449763
137	0x3db2d2c3	0.08731606
138	0xbe8ad9c2	-0.2711926
139	0x3e434ec9	0.19073023
140	0xbe4ada62	-0.19809869
141	0x3cb7ea60	0.022450626
142	0xbe79cdad	-0.24394865
143	0x3e1d6370	0.15369964
144	0x3cffb7db	0.031215599
145	0x3e4c08bb	0.19925205
146	0x3e4c8d3e	0.19975755
147	0xbdc4a086	-0.0960093
148	0xbe54268e	-0.20717832
149	0xbe0f78ec	-0.14010972
150	0x3e8cd6ff	0.2750778
151	0x3cc0e4b4	0.023546554
152	0xbeaac630	-0.3335433
153	0x3e7d4630	0.24733806
154	0x3e91de4e	0.28489918
155	0x3e201c92	0.15635899
156	0x3d180b9b	0.037120443
157	0x3e996faa	0.29968005
158	0xbe99088b	-0.2988933
159	0xbe186f82	-0.14886287
160	0x3e85155d	0.2599286
161	0x3d4437fb	0.04790495
162	0x3e93a1c4	0.28834355
163	0x3ea9c41b	0.3315743
164	0x3b88353f	0.004156738
165	0xbe405645	-0.18782909
166	0x3e6de68e	0.23232481
167	0xbdd22a0c	-0.10261926
168	0x3e84088d	0.25787774
169	0x3e7e55f0	0.2483747
170	0xbc1624ad	-0.009164018
171	0x3dd26f33	0.10275116
172	0x3e9d8b38	0.30770278
173	0x3e10634f	0.14100383
174	0x3e5a7f9a	0.21337739
175	0xbe834202	-0.25636297
176	0x3e2267a0	0.15859842
177	0xba77b720	-0.000944959
178	0xbd8e1bc5	-0.0693889
179	0xbda8cd36	-0.08242266
180	0x3cfd3918	0.030911013
181	0x3e1130a1	0.14178707
182	0x3dc0477b	0.09388634
183	0xbe9f7d24	-0.31150162
184	0x3e3059fc	0.17221826
185	0x3e2f1ec7	0.17101584
186	0xbe1ebcc1	-0.15501691
187	0x3e4ec1f9	0.20191182
188	0x3dfa6c5f	0.122277014
189	0xbe5d1a01	-0.21591951
190	0xbe392c74	-0.18083364
191	0x3e90bb00	0.2826767
192	0x3e84b624	0.25920212
193	0xbc3771b2	-0.011196541
194	0xbd7d0665	-0.061773676
195	0x3e956f6e	0.29186577
196	0x3e490c12	0.1963351
197	0x3db1fe0c	0.08691034
198	0x3e7afc68	0.24510348
199	0x3dbd0c42	0.092308536
200	0x3e4c57f9	0.19955434
201	0x3db884dd	0.09009717
202	0xbd0cfdc8	-0.034421712
203	0xbe588a01	-0.21146394
204	0xbe87b56c	-0.265056
205	0x3e350619	0.17678107
206	0x3d6e3678	0.058157414
207	0x3d3e673c	0.04648517
208	0xbdb08458	-0.086189926
209	0x3e0c3394	0.1369155
210	0xbdfdc703	-0.12391474
211	0x3d9de90f	0.07710468
212	0x3e5c3a70	0.21506667
213	0xbcbd52f7	-0.02311085
214	0xbe5f1a16	-0.21787295
215	0x3d0c0935	0.034188468
216	0xbdde88eb	-0.10865959
217	0x3e8d35f5	0.27580228
218	0x3e39d0eb	0.18146102
219	0x3e20d6f8	0.15707004
220	0xbd32e488	-0.043674976
221	0x3deabe02	0.11462022
222	0x3e360630	0.17775798
223	0xbce8fe24	-0.028441496
224	0xbe8e7159	-0.27820852
225	0x3e3fa854	0.18716556
226	0x3e52bebb	0.2058057
227	0x3de10b52	0.10988487
228	0x3e6ff236	0.2343224
229	0x3e5d2412	0.21595791
230	0xbdf21a99	-0.11821479
231	0x3ca2639d	0.01982289
232	0x3d46a9c5	0.04850175
233	0x3e8c854f	0.27445456
234	0x3e8ac264	0.27101433
235	0x3e0fea35	0.14054187
236	0x3e8928f3	0.26789054
237	0xbdf90240	-0.12158632
238	0x3e83fe1d	0.2577981
239	0xbe5dd599	-0.21663512
240	0xbe8cd4fe	-0.2750625
241	0x3cd75df4	0.026289918
242	0xbe9e03a0	-0.3086214
243	0xbdfeaaf0	-0.124349475
244	0xbe1d815f	-0.15381382
245	0xbe5cf5dc	-0.21578163
246	0xbe966d18	-0.29380107
247	0xbde25e42	-0.110531345
248	0xbb95b18e	-0.0045682853
249	0x3e0bc05a	0.13647595
250	0xbdf3ec5c	-0.11910316
251	0x3e7bbe1b	0.24584238
252	0xbcfc4e38	-0.030799016
253	0xbe35bd2c	-0.17747945
254	0x3e3626b1	0.17788197
255	0x3e49c238	0.19702995
