app/src/main/assets/new_lstm_model.tflite (tflite, 860084 bytes, 8 tensors)

sequential/embedding/embedding_lookup/15025 f4 [912, 100]
00000000: e977 8abb c0a2 b53b ebf4 ef3b b05d d5bc
00000010: 06d1 69bc 3cb9 343c daa0 2d3b 7db3 d9bb
00000020: 2bfd f13c c287 81bc c4d2 173c aa54 8dbc
00000030: b91c 09bd f54f f1bc 3169 d83c 9b1c 6b3b
00000040: 9b60 b73b 7f49 96bc cd09 523d c806 423d
00000050: a020 c23c 96cd 433c ecd8 b33c 7bad f0bb
00000060: 67a0 26bd 4072 4c3c 6539 823c c84b c7bc
00000070: 358f bfbc df7e 373b f7f8 4ebc e938 9c3b
00000080: 2796 fabc 6058 d43c ad12 013c f4d5 0b3c
00000090: 4d2f 893b 4427 153c 3fa4 d8bc f46a 693c
000000a0: 4614 76bc 42ba ecbc 7c83 2abc 0885 de3c
000000b0: f1e4 2abd 9441 0e3d 93da ef3a da7d d53c
000000c0: e80c a43c efee 3abc a32e f73c 0cbf 03bc
000000d0: 33f3 ad3c 94b3 1dbc 5b41 b6bc 7203 153c
000000e0: 4ef5 003d 437e f23c f8d0 693a 9f14 9abc
000000f0: 7486 15bd a8d5 003b 9fbd 9c3a bcc0 02bd
00000100: 16b4 403c 8c05 0d3d a18f 90bc c761 c3bc
00000110: 4898 bf3b 3c3a 8cbc d6d5 483c b54c e6bb
00000120: 0d0f 043c 9400 13bc ef6c 9cbc f77f f73c
00000130: c3a2 e23c 2a42 3b3b 4d68 9fbc 441d f3bc
00000140: b188 a8bb b7f1 0bbc 64e3 963b 4a4d be3c
00000150: adb9 7f3c b924 48bc e00e cc3a 6114 36bd
00000160: 0cd1 87bc 39c1 023c e180 053d 3892 0c3d
00000170: 33f8 073d a823 0abc 5209 acbb c3b2 bc3c
00000180: d84d f0bc 7b48 f53c 7c8d d23a a9ac c6bb
00000190: 5f28 12bd e606 c1bb 5b2b 073d 5864 9fbc
000001a0: 31f5 ee3c 1538 953d 920e da3c 01cd 083d
000001b0: 99a6 22bd eaf9 c0bc c562 133c 3ae0 22bd
000001c0: eb35 463b 1cd1 05bd 65d2 16bc a77e 323d
000001d0: 73f0 673c 2bcf 683c 20c0 c6bc e56c a33d
000001e0: 40b0 4ebd 885b 44bd 5cb4 6abd c941 1d3d
000001f0: 14fe 87bb fa5f a33d e267 78b9 077a 65bd
00000200: 1c47 52bc c3f4 163d 5726 ef3c 1658 663c
00000210: f6a2 0b3d 24a7 41bd e161 35bd 7894 2f3c
00000220: b111 d0bc 73a7 f4bc fd46 93bd 2d3b 7a3d
00000230: 34a6 2e3d 6caa ccbb e47b 99b9 c875 943c
00000240: 6f6f 31bd 0e8f 983b e5ad 8bbc 04b2 613d
00000250: 8aa2 3e3c 031a 32bd 82e9 9e3c fd90 a93b
00000260: 2283 a23c 4fd4 53bd f7a9 6c3d f43f d23c
00000270: 8731 c93c fd24 033d b6f9 083c fcaa 87bc
00000280: ac5a 613c 46d3 c93c 798d 8ebd 349e ca3c
00000290: 8b2f 753c 8457 1cbd dbc0 6abd acca 1f3d
000002a0: 80d2 8a3c 9687 0fba 97c1 0d3d 5922 0a3d
000002b0: a1b0 16bd f100 afbc 3983 0abc e65d 483d
000002c0: b294 173d e722 09bd 364c f93b 3948 d5bc
000002d0: b660 dcbb 9656 febb 507b 84bd c45d 9b3d
000002e0: 03db 68bc 4e2f 403d f000 9abd 1663 823b
000002f0: cd69 983b 3c56 733d 4aa8 3039 1e92 06bd
00000300: f4c9 1bbd 79b9 a5bd e9cf b23b d114 1d3d
00000310: 59ee f2bc 0e7a 003c 5d0a 36bd 0e0d 613c
00000320: 4f5f e7bc d2ab 21bd f9a7 0d3d d9ab 7639
00000330: e3f4 11bd dc72 b13b 43e2 ccbb ffd5 dcbc
00000340: b693 f2bc e930 3a3d cdf0 d3bc 2942 5dbc
00000350: acbd 0cbc 5a53 6abd e92b 0b3d c445 b8bb
00000360: 0748 b33b 8976 87bc e935 0abc 5869 523d
00000370: 14d8 4c3d 67f8 c73b 2a8d 803d 73ee 89bc
00000380: 74d6 22bc f607 273d bb18 11bd a722 b43b
00000390: db79 093b 15e8 823c 4ad0 73bc ca54 20bd
000003a0: c553 8abc d970 60bd d183 3dbd 36a7 58bc
000003b0: 64c3 3b3d ba60 05bd 9f7a 203d 597c 03bd
000003c0: dcd1 c23c 6fbf fb3c 6f63 b93c ef72 98bd
000003d0: 97a9 8cbb 8920 48bd 864b f93c 16cf 29bd
000003e0: d7a7 f33c e212 443d 4449 d0bb 2638 85bd
000003f0: 8438 c6bb cd2f 35bd 0d1b 57bb 4822 c7bc
-0.00422572 0.005543083 0.0073228977 -0.02604565 -0.0142710265 0.011030491 0.002649358 -0.006643711
0.029539665 -0.015811805 0.009266559 -0.017252285 -0.033474658 -0.029457072 0.026417347 0.0035875204
0.005596233 -0.018345593 0.051278878 0.04736975 0.023697197 0.011950871 0.021954022 -0.0073448992
-0.040680315 0.012478411 0.015896508 -0.024328128 -0.023383716 0.0027999205 -0.0126326 0.0047675264
-0.030589176 0.025921047 0.007877988 0.008534897 0.004186547 0.0091036 -0.026445506 0.014246691
-0.015019482 -0.028897408 -0.010407325 0.027163044 -0.04172224 0.03473051 0.0018299393 0.026060987
0.020025685 -0.011409505 0.030173605 -0.008041155 0.02123413 -0.009625334 -0.02224796 0.00909506
0.03148394 0.029601222 0.00089193834 -0.018808661 -0.036505178 0.00196586 0.0011958367 -0.031922087
0.011761686 0.034429118 -0.017646613 -0.023850335 0.0058470108 -0.017117612 0.012258014 -0.007028187
0.008060229 -0.008972306 -0.019094912 0.030212386 0.027665501 0.0028573372 -0.019458914 -0.02967704
-0.005143248 -0.008541516 0.004604744 0.023230214 0.015608233 -0.012215787 0.0015568398 -0.04445303
-0.016579174 0.007980638 0.03259361 0.034319133 0.033195686 -0.008431353 -0.0052501345 0.023034459
-0.029333994 0.029941788 0.0016063894 -0.006063063 -0.035683032 -0.005890715 0.03300033 -0.019457027
0.02916965 0.072860874 0.026618276 0.033398632 -0.03970966 -0.023556668 0.008995716 -0.03976462
0.003024454 -0.032670125 -0.009205435 0.043577816 0.014156449 0.014209549 -0.024261534 0.07979754
-0.050461054 -0.047938854 -0.05730091 0.038392816 -0.0041501615 0.079772905 -0.00023689822 -0.056024577
-0.012834337 0.036854517 0.029193087 0.014059087 0.03409096 -0.04727854 -0.044282798 0.01071655
-0.02539906 -0.029865002 -0.07191274 0.06109159 0.042638972 -0.006245902 -0.0002927474 0.018122569
-0.043319162 0.0046557253 -0.017050693 0.05510141 0.011635432 -0.043481838 0.019398455 0.0051747547
0.01983792 -0.051716145 0.05777928 0.02566526 0.02455975 0.032017697 0.008360317 -0.016561024
0.013754528 0.024636876 -0.069605775 0.02473364 0.014964948 -0.0381694 -0.057312828 0.039011642
0.016946077 -0.0005475221 0.03460845 0.033724163 -0.03678954 -0.021362754 -0.0084541375 0.048917674
0.03700704 -0.03348055 0.007607962 -0.026035415 -0.006725396 -0.0077617867 -0.064688325 0.07586244
-0.014212373 0.046920113 -0.0751971 0.003979097 0.0046512843 0.05940841 0.0001684736 -0.032854192
-0.038034394 -0.08092017 0.0054569137 0.03834993 -0.029654669 0.0078416 -0.044443477 0.013736023
-0.028243689 -0.0394705 0.03458402 0.00023524406 -0.035633933 0.0054153036 -0.0062525584 -0.02695751
-0.02961145 0.0454568 -0.025871659 -0.013504543 -0.008590143 -0.057208396 0.033977423 -0.005623551
0.005471233 -0.016536014 -0.008435705 0.051369995 0.050010756 0.00610261 0.06276925 -0.016837334
-0.009938825 0.040779077 -0.035423975 0.005497295 0.0020977173 0.015979806 -0.014881203 -0.03914336
-0.016885648 -0.05479512 -0.046268288 -0.01322346 0.045840636 -0.03256295 0.03917944 -0.03210101
0.02378171 0.030730931 0.022630421 -0.07443797 -0.0042926776 -0.048859153 0.03043152 -0.04145726
0.029743118 0.04786957 -0.00635639 -0.0650485 -0.0060492177 -0.04423504 -0.003282252 -0.024308339

sequential/lstm/zeros f4 [1, 128]
00000000: 0000 0000 0000 0000 0000 0000 0000 0000
00000010: 0000 0000 0000 0000 0000 0000 0000 0000
00000020: 0000 0000 0000 0000 0000 0000 0000 0000
00000030: 0000 0000 0000 0000 0000 0000 0000 0000
00000040: 0000 0000 0000 0000 0000 0000 0000 0000
00000050: 0000 0000 0000 0000 0000 0000 0000 0000
00000060: 0000 0000 0000 0000 0000 0000 0000 0000
00000070: 0000 0000 0000 0000 0000 0000 0000 0000
00000080: 0000 0000 0000 0000 0000 0000 0000 0000
00000090: 0000 0000 0000 0000 0000 0000 0000 0000
000000a0: 0000 0000 0000 0000 0000 0000 0000 0000
000000b0: 0000 0000 0000 0000 0000 0000 0000 0000
000000c0: 0000 0000 0000 0000 0000 0000 0000 0000
000000d0: 0000 0000 0000 0000 0000 0000 0000 0000
000000e0: 0000 0000 0000 0000 0000 0000 0000 0000
000000f0: 0000 0000 0000 0000 0000 0000 0000 0000
00000100: 0000 0000 0000 0000 0000 0000 0000 0000
00000110: 0000 0000 0000 0000 0000 0000 0000 0000
00000120: 0000 0000 0000 0000 0000 0000 0000 0000
00000130: 0000 0000 0000 0000 0000 0000 0000 0000
00000140: 0000 0000 0000 0000 0000 0000 0000 0000
00000150: 0000 0000 0000 0000 0000 0000 0000 0000
00000160: 0000 0000 0000 0000 0000 0000 0000 0000
00000170: 0000 0000 0000 0000 0000 0000 0000 0000
00000180: 0000 0000 0000 0000 0000 0000 0000 0000
00000190: 0000 0000 0000 0000 0000 0000 0000 0000
000001a0: 0000 0000 0000 0000 0000 0000 0000 0000
000001b0: 0000 0000 0000 0000 0000 0000 0000 0000
000001c0: 0000 0000 0000 0000 0000 0000 0000 0000
000001d0: 0000 0000 0000 0000 0000 0000 0000 0000
000001e0: 0000 0000 0000 0000 0000 0000 0000 0000
000001f0: 0000 0000 0000 0000 0000 0000 0000 0000
0.0 0.0 0.0 0.0 0.0 0.0 0.0 0.0
0.0 0.0 0.0 0.0 0.0 0.0 0.0 0.0
0.0 0.0 0.0 0.0 0.0 0.0 0.0 0.0
0.0 0.0 0.0 0.0 0.0 0.0 0.0 0.0
0.0 0.0 0.0 0.0 0.0 0.0 0.0 0.0
0.0 0.0 0.0 0.0 0.0 0.0 0.0 0.0
0.0 0.0 0.0 0.0 0.0 0.0 0.0 0.0
0.0 0.0 0.0 0.0 0.0 0.0 0.0 0.0
0.0 0.0 0.0 0.0 0.0 0.0 0.0 0.0
0.0 0.0 0.0 0.0 0.0 0.0 0.0 0.0
0.0 0.0 0.0 0.0 0.0 0.0 0.0 0.0
0.0 0.0 0.0 0.0 0.0 0.0 0.0 0.0
0.0 0.0 0.0 0.0 0.0 0.0 0.0 0.0
0.0 0.0 0.0 0.0 0.0 0.0 0.0 0.0
0.0 0.0 0.0 0.0 0.0 0.0 0.0 0.0
0.0 0.0 0.0 0.0 0.0 0.0 0.0 0.0

Func/sequential/lstm/StatefulPartitionedCall/input/_6 f4 [512]
00000000: 8f14 be3d 9147 7e3d c7c3 a83d d46e 883d
00000010: 9523 a33d 0613 803d 000d a63d d247 bd3d
00000020: 0d2c e53d b0e3 d53d efe7 cb3d 57a4 fe3d
00000030: da44 a13d d94e b93d c264 143d c9d9 e03d
00000040: 1b84 933d 62cb 9b3d 79bd a53d 99a1 9d3d
00000050: 1989 953d 10c9 9f3d 073c c83d 88b2 ce3d
00000060: 4ff9 673d f389 a13d f42d c33d b218 903d
00000070: c396 9c3d 3df3 353d 6be8 b13d 4d00 403d
00000080: 274b 983d edc4 bb3d c41c 683d a20c ac3d
00000090: 0781 ad3d 71c7 643d 9d1a 8a3d 4ecd d53d
000000a0: 0813 a53d 25b9 b13d 4c18 973d 381f da3d
000000b0: 9866 ac3d 93a9 d93d 7601 bc3d 8456 c83d
000000c0: 1a48 7d3d 38f2 833d 5e3c 013e 0487 d43d
000000d0: 7697 bb3d dc92 be3d e56f f53d 4b3f 783d
000000e0: f29e 9a3d 9e29 b73d a26b 8e3d 2127 613d
000000f0: 8731 a53d ad47 a23d 0b9d 953d b13e be3d
00000100: 62da a43d 49b9 9c3d 31b7 623d ad5d 593d
00000110: d642 413d 056b 923d 61a2 883d 087f b43d
00000120: 54a7 863d 43b4 cc3d aebb be3d b56c b63d
00000130: c307 bd3d 6b34 9c3d 4e4e 813d 5af6 d43d
00000140: 0e5c 833d 80e7 b43d a650 c43d 6755 d03d
00000150: 98f6 a33d 4eac 863d 3096 ba3d 27e1 8a3d
00000160: 1fcb 933d 59b7 9b3d db73 723d 4ac2 863d
00000170: 6527 b23d ecc1 cb3d 824d d23d 2b54 c23d
00000180: 09d7 973d 2ed7 e63d bedb c63d 0c51 863d
00000190: 06e0 573d aa8b a73d a860 6e3d 45ab e13d
000001a0: e868 773d ff63 993d 0e9c 313d 1016 d93d
000001b0: 0d93 a33d f45c 9e3d e37a b93d be92 bd3d
000001c0: 4162 fa3d cbbe bd3d acc8 9b3d 5e71 c73d
000001d0: 6973 8f3d af1b bd3d 132b 4e3d f406 843d
000001e0: 1988 a63d 4d50 6b3d 54f7 6e3d 8f3a 973d
000001f0: 3787 ab3d 0e37 d23d 96d5 893d 9a34 9d3d
00000200: 14bc 7f3f 247a 873f 2134 823f eb19 803f
00000210: 9485 7f3f 4e68 853f bb33 833f 76a9 813f
00000220: 9357 803f b10b 853f d243 853f d4b4 873f
00000230: e6b2 823f 0a6a 813f 67a3 813f b729 823f
00000240: 2541 853f 3c12 843f 7971 843f b83d 823f
00000250: 62f7 803f 243f 7e3f 5c90 853f f5f4 843f
00000260: 7360 823f 5213 833f 666b 813f 6367 803f
00000270: 568e 863f 87bd 7e3f 41e8 803f 1cee 803f
00000280: c737 803f 0105 833f b0eb 823f 1622 803f
00000290: 8d18 843f 0a8a 803f 6743 833f d4ca 803f
000002a0: 4f62 823f eacb 813f 9480 833f 032d 853f
000002b0: 10d7 853f fccb 853f 1e6b 843f c5fe 7f3f
000002c0: d2b4 823f b875 833f 815b 853f 29c3 7d3f
000002d0: 8336 813f 7d18 863f 652c 7a3f c6b1 813f
000002e0: e25b 833f 1f26 843f dad7 823f 1efc 813f
000002f0: 0b58 833f 2f79 873f 624f 833f 1635 823f
00000300: 219a 843f f5f8 823f 3d7c 853f 1e9f 833f
00000310: b6a0 823f b515 863f fe46 813f 66b6 813f
00000320: 00fd 813f b627 833f 2222 803f 2a5c 833f
00000330: 21ab 813f 1733 843f c33c 813f 6d1e 833f
00000340: 66a5 823f b600 843f f83a 843f 7b8a 833f
00000350: 574a 833f f1a1 823f 2f6a 823f 0b84 813f
00000360: dec4 813f 0021 883f 835f 833f d9dc 853f
00000370: b607 843f db23 823f 3732 7d3f 7b6a 833f
00000380: d159 833f 9844 813f 45b1 813f 4153 7d3f
00000390: fc8d 813f 2fae 7d3f 2f99 873f 53d1 813f
000003a0: 05c7 813f 4307 803f df23 823f 8aa4 813f
000003b0: 5f87 833f 3228 823f 8edd 833f b5c1 833f
000003c0: f417 813f 4168 803f 6ff1 833f c326 803f
000003d0: e31e 823f 4f83 883f f20c 803f 861b 7e3f
000003e0: 8113 893f de08 843f 9c07 843f ba82 7f3f
000003f0: 1d18 8a3f cc66 823f c720 843f 74c1 823f
0.09281265 0.06207997 0.082404666 0.06661764 0.07965771 0.062536284 0.08107948 0.09242214
0.11190043 0.104438186 0.09956347 0.12433689 0.078744605 0.09048242 0.036228903 0.10979039
0.072029315 0.076071516 0.0809278 0.07696838 0.0730154 0.078020215 0.09777074 0.10092646
0.056634244 0.0788764 0.09530249 0.0703596 0.07645943 0.044421423 0.08686908 0.046875287
0.07436209 0.0916842 0.056668058 0.08400847 0.08471876 0.055854265 0.06743357 0.104395494
0.080602705 0.08677892 0.07377681 0.10650486 0.08418006 0.10628047 0.09179966 0.097821265
0.06183634 0.06442684 0.12620685 0.10377315 0.09159748 0.09305355 0.11984233 0.060607236
0.07549848 0.08943485 0.06954123 0.054968957 0.08066087 0.07923827 0.07305344 0.09289301
0.08049466 0.07652528 0.055350486 0.05306785 0.04718288 0.071493186 0.06671596 0.08813292
0.06574884 0.0999532 0.09313141 0.08907453 0.09229996 0.076271854 0.063137636 0.1039855
0.064140424 0.088332176 0.09585695 0.10172539 0.080060184 0.06575833 0.09110677 0.06781226
0.07216477 0.0760333 0.05919252 0.065800264 0.0869892 0.09949097 0.1026869 0.0948871
0.074140616 0.11271511 0.09709881 0.06558427 0.05270388 0.08180936 0.058197647 0.11018995
0.06040278 0.07489776 0.043361716 0.10599911 0.07987032 0.07732573 0.09056642 0.092565045
0.12225772 0.092649065 0.076066345 0.0973842 0.070044346 0.09233796 0.050334048 0.06446639
0.08131427 0.057449628 0.05834134 0.07384216 0.083753996 0.10264407 0.067301914 0.076760486
0.9989636 1.0584149 1.0172158 1.000791 0.998132 1.0422456 1.0250162 1.012984
1.0026726 1.0394193 1.0411322 1.0602059 1.0210845 1.0110486 1.0127991 1.016898
1.0410506 1.0318065 1.0347129 1.0175085 1.0075495 0.99315095 1.043468 1.0387255
1.0185684 1.0240271 1.01109 1.0031551 1.0512187 0.99507946 1.0070878 1.0072665
1.0017022 1.0235902 1.0228176 1.0010402 1.0319992 1.0042126 1.0254945 1.0061898
1.0186251 1.0140355 1.0273614 1.0404361 1.0456257 1.0452876 1.034519 0.9999812
1.0211432 1.02703 1.041855 0.99125916 1.0094761 1.0476223 0.9772399 1.0132377
1.0262415 1.0324134 1.0222123 1.0155065 1.0261244 1.0583857 1.0258601 1.017245
1.0359536 1.0232226 1.042854 1.0282934 1.0205295 1.0475374 1.009979 1.0133789
1.0155334 1.0246494 1.0010417 1.0262501 1.0130349 1.0328091 1.0096668 1.024366
1.0206726 1.0312717 1.0330496 1.0276636 1.0257062 1.020567 1.0188655 1.0118421
1.0138204 1.0635071 1.0263523 1.0458022 1.0314853 1.0167192 0.98904747 1.026687
1.0261785 1.0099058 1.0132223 0.9895516 1.0121455 0.9909391 1.0593623 1.0142006
1.0138861 1.0002216 1.0167197 1.0128338 1.0275687 1.0168517 1.0301988 1.029349
1.0085435 1.0031816 1.0308055 1.0011829 1.0165676 1.0665072 1.000395 0.9926075
1.0709077 1.0315206 1.0314822 0.9980885 1.0788609 1.0187621 1.0322503 1.0215287

TensorArrayV2_1;sequential/lstm/StatefulPartitionedCall/TensorArrayV2_1 f4 [8, 1, 128]
00000000: 0000 0000 0000 0000 0000 0000 0000 0000
00000010: 0000 0000 0000 0000 0000 0000 0000 0000
00000020: 0000 0000 0000 0000 0000 0000 0000 0000
00000030: 0000 0000 0000 0000 0000 0000 0000 0000
00000040: 0000 0000 0000 0000 0000 0000 0000 0000
00000050: 0000 0000 0000 0000 0000 0000 0000 0000
00000060: 0000 0000 0000 0000 0000 0000 0000 0000
00000070: 0000 0000 0000 0000 0000 0000 0000 0000
00000080: 0000 0000 0000 0000 0000 0000 0000 0000
00000090: 0000 0000 0000 0000 0000 0000 0000 0000
000000a0: 0000 0000 0000 0000 0000 0000 0000 0000
000000b0: 0000 0000 0000 0000 0000 0000 0000 0000
000000c0: 0000 0000 0000 0000 0000 0000 0000 0000
000000d0: 0000 0000 0000 0000 0000 0000 0000 0000
000000e0: 0000 0000 0000 0000 0000 0000 0000 0000
000000f0: 0000 0000 0000 0000 0000 0000 0000 0000
00000100: 0000 0000 0000 0000 0000 0000 0000 0000
00000110: 0000 0000 0000 0000 0000 0000 0000 0000
00000120: 0000 0000 0000 0000 0000 0000 0000 0000
00000130: 0000 0000 0000 0000 0000 0000 0000 0000
00000140: 0000 0000 0000 0000 0000 0000 0000 0000
00000150: 0000 0000 0000 0000 0000 0000 0000 0000
00000160: 0000 0000 0000 0000 0000 0000 0000 0000
00000170: 0000 0000 0000 0000 0000 0000 0000 0000
00000180: 0000 0000 0000 0000 0000 0000 0000 0000
00000190: 0000 0000 0000 0000 0000 0000 0000 0000
000001a0: 0000 0000 0000 0000 0000 0000 0000 0000
000001b0: 0000 0000 0000 0000 0000 0000 0000 0000
000001c0: 0000 0000 0000 0000 0000 0000 0000 0000
000001d0: 0000 0000 0000 0000 0000 0000 0000 0000
000001e0: 0000 0000 0000 0000 0000 0000 0000 0000
000001f0: 0000 0000 0000 0000 0000 0000 0000 0000
00000200: 0000 0000 0000 0000 0000 0000 0000 0000
00000210: 0000 0000 0000 0000 0000 0000 0000 0000
00000220: 0000 0000 0000 0000 0000 0000 0000 0000
00000230: 0000 0000 0000 0000 0000 0000 0000 0000
00000240: 0000 0000 0000 0000 0000 0000 0000 0000
00000250: 0000 0000 0000 0000 0000 0000 0000 0000
00000260: 0000 0000 0000 0000 0000 0000 0000 0000
00000270: 0000 0000 0000 0000 0000 0000 0000 0000
00000280: 0000 0000 0000 0000 0000 0000 0000 0000
00000290: 0000 0000 0000 0000 0000 0000 0000 0000
000002a0: 0000 0000 0000 0000 0000 0000 0000 0000
000002b0: 0000 0000 0000 0000 0000 0000 0000 0000
000002c0: 0000 0000 0000 0000 0000 0000 0000 0000
000002d0: 0000 0000 0000 0000 0000 0000 0000 0000
000002e0: 0000 0000 0000 0000 0000 0000 0000 0000
000002f0: 0000 0000 0000 0000 0000 0000 0000 0000
00000300: 0000 0000 0000 0000 0000 0000 0000 0000
00000310: 0000 0000 0000 0000 0000 0000 0000 0000
00000320: 0000 0000 0000 0000 0000 0000 0000 0000
00000330: 0000 0000 0000 0000 0000 0000 0000 0000
00000340: 0000 0000 0000 0000 0000 0000 0000 0000
00000350: 0000 0000 0000 0000 0000 0000 0000 0000
00000360: 0000 0000 0000 0000 0000 0000 0000 0000
00000370: 0000 0000 0000 0000 0000 0000 0000 0000
00000380: 0000 0000 0000 0000 0000 0000 0000 0000
00000390: 0000 0000 0000 0000 0000 0000 0000 0000
000003a0: 0000 0000 0000 0000 0000 0000 0000 0000
000003b0: 0000 0000 0000 0000 0000 0000 0000 0000
000003c0: 0000 0000 0000 0000 0000 0000 0000 0000
000003d0: 0000 0000 0000 0000 0000 0000 0000 0000
000003e0: 0000 0000 0000 0000 0000 0000 0000 0000
000003f0: 0000 0000 0000 0000 0000 0000 0000 0000
0.0 0.0 0.0 0.0 0.0 0.0 0.0 0.0
0.0 0.0 0.0 0.0 0.0 0.0 0.0 0.0
0.0 0.0 0.0 0.0 0.0 0.0 0.0 0.0
0.0 0.0 0.0 0.0 0.0 0.0 0.0 0.0
0.0 0.0 0.0 0.0 0.0 0.0 0.0 0.0
0.0 0.0 0.0 0.0 0.0 0.0 0.0 0.0
0.0 0.0 0.0 0.0 0.0 0.0 0.0 0.0
0.0 0.0 0.0 0.0 0.0 0.0 0.0 0.0
0.0 0.0 0.0 0.0 0.0 0.0 0.0 0.0
0.0 0.0 0.0 0.0 0.0 0.0 0.0 0.0
0.0 0.0 0.0 0.0 0.0 0.0 0.0 0.0
0.0 0.0 0.0 0.0 0.0 0.0 0.0 0.0
0.0 0.0 0.0 0.0 0.0 0.0 0.0 0.0
0.0 0.0 0.0 0.0 0.0 0.0 0.0 0.0
0.0 0.0 0.0 0.0 0.0 0.0 0.0 0.0
0.0 0.0 0.0 0.0 0.0 0.0 0.0 0.0
0.0 0.0 0.0 0.0 0.0 0.0 0.0 0.0
0.0 0.0 0.0 0.0 0.0 0.0 0.0 0.0
0.0 0.0 0.0 0.0 0.0 0.0 0.0 0.0
0.0 0.0 0.0 0.0 0.0 0.0 0.0 0.0
0.0 0.0 0.0 0.0 0.0 0.0 0.0 0.0
0.0 0.0 0.0 0.0 0.0 0.0 0.0 0.0
0.0 0.0 0.0 0.0 0.0 0.0 0.0 0.0
0.0 0.0 0.0 0.0 0.0 0.0 0.0 0.0
0.0 0.0 0.0 0.0 0.0 0.0 0.0 0.0
0.0 0.0 0.0 0.0 0.0 0.0 0.0 0.0
0.0 0.0 0.0 0.0 0.0 0.0 0.0 0.0
0.0 0.0 0.0 0.0 0.0 0.0 0.0 0.0
0.0 0.0 0.0 0.0 0.0 0.0 0.0 0.0
0.0 0.0 0.0 0.0 0.0 0.0 0.0 0.0
0.0 0.0 0.0 0.0 0.0 0.0 0.0 0.0
0.0 0.0 0.0 0.0 0.0 0.0 0.0 0.0

sequential/output/BiasAdd/ReadVariableOp f4 [6]
00000000: 9447 0abd 9e44 4bbd 3a6d 16bb 81c8 6a3d
00000010: 31d6 593d dd2e 49bc
-0.03375967 -0.049625985 -0.0022953288 0.05732012 0.053182784 -0.0122792395

MatMul_1 f4 [512, 128]
00000000: b487 d13d 37e2 2d3e 7bdf 7a3d 57a6 c93d
00000010: 2aa6 8e3e 9095 5b3e 993c 74be 899e 0b3e
00000020: f8e2 f93d 503c 26be 60ef 2f3e 862d b63d
00000030: f894 133e 0029 8c3d 936e da3d 9ee1 29be
00000040: ab98 5bbe c45c 1cbe d834 53bd 733f bbbb
00000050: 4156 753b 0350 19be 0d1a d63d 2c4d 06be
00000060: 470c ca3d fa89 4dbe 64c4 943e 0521 043e
00000070: 8ad3 14be 21d3 483d 5b6c 6cbd 85dd 9bbd
00000080: 909c 9fbd a688 51be 7568 0fbe 4dc6 dbbd
00000090: 3d41 1a3e 033b b3bd 4e89 19be 15ec 063e
000000a0: 8eb0 ba3d ba71 f1bc ac79 3fbe 18f8 64bc
000000b0: 5479 773e b34b 623c d196 60be bb4e b13d
000000c0: 734e fcbd 608a 593e 58a6 603e 5d62 473d
000000d0: e863 b03d 1691 3bbe 7bd9 013e a594 27be
000000e0: 5856 1a3e 1498 d1bd 5330 02be 7075 583d
000000f0: 4e7a df3b d9bc 273e 7639 7d3e a975 18bd
00000100: a3ae 9bbd 793d fcbd 1b72 6abe 41d8 10be
00000110: 11ea f63d f73d 40be 95b0 72bd 6332 0dbe
00000120: a225 28be 96ff e73d 742d 9c3c 3863 123e
00000130: a63d 8d3b 4b5c 6c3e 09c4 3cbe 2c93 bebd
00000140: d86e 363e 1865 91bd a0bf 6d3e 9020 ddbd
00000150: 5ebd 06bc a4d9 a2bd 5144 313d 6c6f e53d
00000160: 8c39 b1bd 732e 70be 2c27 0b3e a5d1 373e
00000170: 4a73 2d3e 5222 983d 6786 c3bd 083e dc3d
00000180: a26a 013e cf1d 243e 8c4a a3bd 44f9 8cbc
00000190: fedc b8bd c182 f73c 2dd9 88be c8f3 f5bb
000001a0: 7976 1cbe 8514 2fbe dc2a fbbd b0ab 5d3d
000001b0: ff35 6b3e 563f 00be 73e4 53be 6680 423e
000001c0: ac38 4dbd e446 4cbd 77b4 463e d83e 473e
000001d0: 1a1f d5bc 6a2c 40be 5a62 30be b998 28be
000001e0: 633f 3e3e e997 68be a2f9 07be 571d c53d
000001f0: ec6e 58be d4a6 2bbd 8955 ee3d b791 abbe
00000200: 2c95 843c b676 9b3d 9469 763b ae0d a33d
00000210: c3bf d13d c8d8 df3d efc4 acbd bc9f f83d
00000220: 9078 d6bb 1783 0cbe 5857 613d 944b e73d
00000230: 8e26 0a3e 92bb 223d d551 d23d 5fe8 3dbc
00000240: 6aae a7bd 124d 1ebd f9a0 223c e982 a4bb
00000250: d017 863b 7d6b babd fa86 243e 6234 4abd
00000260: 2e55 3a3d 606a 94bd 69b3 c13d 2f5c 783c
00000270: 1b4d 5cbd a0cd 3a3d 9c00 9fbd 30ca 14be
00000280: 7a8d dfbc cca2 95bd 410a c7bd 1878 8bbd
00000290: 8301 143e 4bea 05be f15c babd aec8 f03d
000002a0: ffb6 963c b185 2dbd ede2 09be 22a2 123c
000002b0: 8ffa ef3d 018d 243c c721 aebd 4fae 65bd
000002c0: 0981 89bd 5392 823d d374 8e3d 4f9b 12bd
000002d0: a246 8d3d 4f80 08bd 4c32 a43d ca6d 91bd
000002e0: d8e3 103d 2c4f e2bd 2546 5abd 34be 5f3d
000002f0: 8060 34bd d669 323e 4b33 f13d 3744 933c
00000300: a0cf e8bc 72e0 96bd 6174 a2bd 2487 07be
00000310: a32b f23c c949 60bd 8d78 cabd 8c2f 11be
00000320: 574e 04be 4a95 903d e663 2f3c d424 713c
00000330: f0aa 14ba c6f7 cb3d 9664 9fbd c98f 90bd
00000340: bf38 6a3d fdd8 b4bd 816d 0d3d ffd7 bcbc
00000350: 158e 15bd 0c13 d5bc b3e0 583d c147 783d
00000360: 6729 1cbe 09b5 01be 21d3 8e3c 90ae d93d
00000370: e596 803d 47ac 69bd 29f2 c6bd 9066 123c
00000380: 4ec3 d63d 19f3 093e da6b 3bbc cae5 fa3b
00000390: 1301 c8bd 3342 f5bc c376 1fbe a83b 83bd
000003a0: acda a2bd 50ff 61bd c593 babd e62d b2bd
000003b0: dec5 8c3d 2f74 2bbd cb11 a0bd 347f 883d
000003c0: 78a1 b13b cef2 18bd 4b2c bf3d 2d2b b73c
000003d0: 88d6 81bd 0f71 92bd a175 3cbd c209 d83c
000003e0: b43a 983d 3df0 bbbd 7bd7 92bd 4d90 a4bc
000003f0: d6da 00be 8c41 ccbc a3d3 2d3d 4eb9 47bd
0.102309614 0.16980825 0.061248284 0.0984618 0.27861148 0.21443772 -0.23851241 0.13634695
0.12201494 -0.16233945 0.17181158 0.08895402 0.14412296 0.06843758 0.106656216 -0.16589972
-0.21444957 -0.15269762 -0.051564068 -0.005714351 0.0037435445 -0.14971928 0.104541875 -0.13115376
0.09865623 -0.20072165 0.29056084 0.12903221 -0.14533821 0.049029473 -0.057720523 -0.07610611
-0.07793534 -0.20462283 -0.14004691 -0.10731182 0.15063949 -0.0875149 -0.14993784 0.13175996
0.091157064 -0.029473174 -0.18698758 -0.013975166 0.24167377 0.013811993 -0.21932532 0.08657595
-0.123196505 0.21244192 0.21938455 0.04867779 0.086128056 -0.18317065 0.12680618 -0.16365297
0.15072 -0.10234085 -0.12713747 0.052846372 0.00682 0.16380633 0.24728951 -0.037221584
-0.07601669 -0.123164125 -0.2289509 -0.14144994 0.120563634 -0.18773638 -0.059250433 -0.13788752
-0.16420606 0.11328046 0.019064642 0.14295661 0.0043103276 0.23082082 -0.18434156 -0.093054146
0.17815721 -0.0709936 0.2321763 -0.107972264 -0.00822386 -0.07951668 0.043278042 0.11202893
-0.08653554 -0.23455219 0.13589162 0.17951067 0.1693851 0.07428421 -0.095471196 0.10754019
0.12638333 0.16026996 -0.07973203 -0.017208703 -0.09026526 0.030213716 -0.26728192 -0.0075058676
-0.15279569 -0.17097671 -0.12264034 0.054118812 0.22969817 -0.1252416 -0.20692615 0.18994293
-0.050102875 -0.049872294 0.1940478 0.19457567 -0.026015807 -0.18766943 -0.17225018 -0.16464509
0.18578868 -0.22714199 -0.13278821 0.09624737 -0.21136063 -0.041907147 0.11637408 -0.3350961
0.016184412 0.07591002 0.003759955 0.079615936 0.10241654 0.109300196 -0.084359996 0.12139842
-0.006545134 -0.13721882 0.055014938 0.11293712 0.1349127 0.039729662 0.102695145 -0.011591046
-0.08187564 -0.03864772 0.009926074 -0.0050204885 0.004092194 -0.09102533 0.16067114 -0.049366362
0.04549139 -0.07246852 0.09458048 0.015158697 -0.05378447 0.045606256 -0.07763788 -0.14530253
-0.027289141 -0.07306442 -0.09718753 -0.068100154 0.14453702 -0.13077657 -0.090997584 0.117570266
0.018397806 -0.042363826 -0.13465472 0.008949788 0.11717712 0.010043384 -0.08502536 -0.056074437
-0.06714065 0.063755654 0.06955876 -0.035792645 0.06898238 -0.03332549 0.08017406 -0.07101019
0.03537354 -0.11050257 -0.05328955 0.05462475 -0.044037342 0.17423186 0.117773615 0.017976863
-0.028419316 -0.07367028 -0.07932354 -0.13235146 0.029561823 -0.054757867 -0.098862745 -0.14178294
-0.1292051 0.07059725 0.01070497 0.014718253 -0.00056712236 0.099593684 -0.07782857 -0.07058675
0.057183024 -0.0883045 0.03452826 -0.023052214 -0.036512453 -0.026010059 0.052948665 0.060615305
-0.15250169 -0.12666716 0.017434658 0.10628998 0.06278781 -0.057049062 -0.09714157 0.008935586
0.1048647 0.1347164 -0.011439288 0.0076567875 -0.0976583 -0.029938793 -0.15572648 -0.06407863
-0.079518646 -0.055175126 -0.09110216 -0.08700161 0.06873678 -0.04185885 -0.07815894 0.06664887
0.00542086 -0.03734093 0.0933462 0.022359455 -0.06339747 -0.071504705 -0.046010617 0.02637184
0.07433072 -0.09176681 -0.07170006 -0.02008834 -0.1258348 -0.024933599 0.04243816 -0.048760705

MatMul f4 [512, 100]
00000000: 66da 3a3c 0dc2 04bd 09fe 363d 0eda 0c3d
00000010: 7d98 a2bd f3bd 77bd 6d64 0b3c f43a f8bd
00000020: 5e09 29bd 21e7 cdbb 9b14 2a3e 0efc 3a3e
00000030: 108f cabb fc75 2e3e 15a9 9cbd 0000 f63b
00000040: 6102 13be eb9c da3d 19d9 a2bb eec3 0ebe
00000050: ea62 aabd bcf2 abbd 5de9 1abb d377 0bbe
00000060: 0c17 083e e615 3bbd 982c 90bd 1199 233d
00000070: e4d0 223d c290 64bd 1a53 22be 4b09 1f3d
00000080: 8a71 b83d a099 d8bd abcc c2bd ae31 e2bd
00000090: a70a 1d3d 3b16 b93c 183e 0b3d 3b9c 5bbd
000000a0: 1d9a ec3d d8f8 003e b7e9 263e e1d3 79bd
000000b0: b586 a1bd 1703 d3bc b7a9 953d cf87 e9bc
000000c0: 7322 183e 43dc 183e 7c72 d3bd 9e8e a0bd
000000d0: 1359 1d3e e33d 0a3e 4a32 8c3d 8852 c8bc
000000e0: 0912 48bd c45f 58bd 7d0a 903d c730 8e3d
000000f0: 1823 673d 7d4c dabc a3c8 4b3e 5445 283e
00000100: bd9a ee3d 978a 14be 85be 303e 7390 4bbb
00000110: dffa ea3d df0b 37bd e611 7cbb ad34 893c
00000120: 239b 253e a02d 703c e5dd 0b3e 26af cc3d
00000130: ec35 46be 4a3a 3a3d 9b08 fcbd fdfe af3d
00000140: bf36 aa3d 655b 54bd a319 b5bc 2685 4bbd
00000150: 7344 c5bd d646 3dbd 95cc 09be e781 d63c
00000160: 55ef 173e dfee 2dbe 87d5 4f3c 8e6c 33bd
00000170: 3f09 80bd bbab 0a3c 6581 213c e858 8bbd
00000180: 3390 043e c496 7a3d 508a 63bc eca3 243d
00000190: fdcd 25be 5dd5 663d fe09 a8bd 00c5 08bc
000001a0: 0d47 a83c 06f1 a5bd 7b50 f5bd 213b b73c
000001b0: dee4 6fbc a6ac 4d3c 1d52 bcbb 1263 913d
000001c0: 1bb0 f83c 1a3d 2abd 4b9b 6f3d 302a 52bd
000001d0: d3bf b43d 745f ec3c 4fea 993c 5927 6a3d
000001e0: f3e1 743d d00c 233d c57f ae3d 5cc5 193d
000001f0: 16e5 a03a 3a0e 193d 127b 51bd c523 cb3d
00000200: 3301 0d3d 040b 40bd 41b1 8a3d e44d 97bd
00000210: ccb4 32bd eb00 42bd 15ac cb3b 7fcc adbb
00000220: 598d a7bd 367d 61bd b034 5f3d b6cd 883b
00000230: 6c98 203d e428 48bd 2013 6dbb f234 373d
00000240: eb19 563d ad8d 063d b84f 943c 1de3 51bd
00000250: c8d1 14bd ff4e 26bd 1e68 0e3c 4c81 233e
00000260: d20a 9b3c 0278 363d d0e3 a83b f025 cd3d
00000270: 9b62 6d3c ed5b 3e3d d15b 27be 1de4 a33d
00000280: 95c6 223e e4ee eabd bcbf e0bd 1e71 343b
00000290: 5de9 19bd 71c9 f8bd 44e6 343d b58d 303d
000002a0: e2c7 b9bc d1ee ff3d 1db3 00be d009 503e
000002b0: 8474 d1bd 7265 7abc 4655 8dbd 2217 d53c
000002c0: 3b6b 5abd ff68 8bbd ce06 443c 5a72 7b3c
000002d0: 546f 003d 7a63 cf3d e202 8bbd 59aa 9fbd
000002e0: e176 e83c ab6e 083e 449b abbd da7d fb3b
000002f0: 15e5 af3c d2dd 95bd 4391 cdbc f32d 25bd
00000300: 90f9 883d 9cf0 273c 34db 7a3d 73f1 ae3d
00000310: 716f cebc c2a5 10be 1bcd 463d 0199 df3d
00000320: bacc 833c bdfe 273e 25ea 29bd ad85 993c
00000330: f410 7ebd 5551 613e 6bb7 e43c 5c74 d33c
00000340: 28ef 60bd 027c ddbc 065d 15be 0e02 23bd
00000350: a109 173e 1616 293d 7e94 febd 087d 583e
00000360: 0961 e5bd d69e 02bc 2227 f2bd c21b 9f3d
00000370: baab 13bd 0e55 89bd 4c28 ab3d 60f7 8ebc
00000380: 7683 433e ca80 823a f76b 80bd c82b 7dbc
00000390: f06f 283d 81f9 c0bd a57d 733d f204 62be
000003a0: 93e2 6a3d 0e3b 07bd 72d5 9a3d f4eb 42bc
000003b0: 5bc1 0a3d 0e20 3e3d 54d5 a53d 7d00 c43c
000003c0: 5ec3 68bd f47d 1a3d 834b 283d 5430 48be
000003d0: 3179 4d3d 1f35 c6bd 12d7 943e aeee a3bd
000003e0: e972 92bd d185 463e 5e3d 75bd b9bc 45be
000003f0: 0144 b4bc 9ccd 4ebd df28 ff3d bdfa 703e
0.011404609 -0.032411624 0.04467586 0.03438764 -0.07939241 -0.060483884 0.00850783 -0.121206194
-0.0412687 -0.006283656 0.16609423 0.18260214 -0.006181605 0.17037195 -0.07649437 0.007507324
-0.14356376 0.10674461 -0.0049697277 -0.13941929 -0.083196476 -0.08395907 -0.002363763 -0.13619928
0.13290042 -0.04567518 -0.070397556 0.039940897 0.039749995 -0.055802114 -0.15852013 0.03882722
0.09006031 -0.10576177 -0.095116936 -0.11044632 0.038340237 0.022593608 0.033994764 -0.05361579
0.11552832 0.12594926 0.16300093 -0.06099308 -0.078870215 -0.02575831 0.07307761 -0.028507141
0.14856891 0.14927773 -0.103245705 -0.07839702 0.1536601 0.1350017 0.068455294 -0.024453416
-0.048845325 -0.052825704 0.070332505 0.06942897 0.056429952 -0.0266478 0.19900756 0.16432697
0.11650608 -0.14505993 0.17260177 -0.003106144 0.11473631 -0.044689056 -0.0038462817 0.01674875
0.16172461 0.014659315 0.13658865 0.099943444 -0.19356507 0.045465745 -0.12306329 0.08593557
0.08311223 -0.051844973 -0.022106951 -0.049687527 -0.09632196 -0.046210133 -0.13456948 0.02618499
0.14837392 -0.16985653 0.012685186 -0.043804698 -0.062517636 0.008463795 0.00985751 -0.06804067
0.12945633 0.061178938 -0.013887957 0.04019539 -0.1619186 0.056355823 -0.08205031 -0.00834775
0.020541692 -0.08102612 -0.11978241 0.022367062 -0.0146419685 0.01255337 -0.0057470934 0.07098974
0.030357411 -0.041562177 0.05849771 -0.051309764 0.0882565 0.02885411 0.018788485 0.05716643
0.059785794 0.03980714 0.08520464 0.037541732 0.0012275304 0.037367083 -0.05114276 0.09918932
0.03442497 -0.046885505 0.0677209 -0.07387903 -0.043629453 -0.047364157 0.006215582 -0.005303919
-0.08181257 -0.05505105 0.054493606 0.0041749133 0.03920786 -0.04886712 -0.003617473 0.044728227
0.05227081 0.032849956 0.01810442 -0.051241983 -0.036332875 -0.04060268 0.008691816 0.15967292
0.018926058 0.044548042 0.0051541105 0.10017002 0.014488841 0.046474386 -0.16343619 0.080024935
0.15896066 -0.11471346 -0.109740704 0.0027533243 -0.03757607 -0.12147797 0.04416491 0.043103892
-0.02267832 0.124967225 -0.12568326 0.20316243 -0.10227302 -0.0152829755 -0.0690103 0.026012007
-0.05332492 -0.06807136 0.011964513 0.015347088 0.03135617 0.101263955 -0.06787659 -0.07796163
0.028376998 0.13323466 -0.08379224 0.007674915 0.02147154 -0.073176995 -0.02509368 -0.040327024
0.06688225 0.010250237 0.061244205 0.085421465 -0.025199624 -0.14125732 0.048535448 0.10917855
0.016088832 0.16405769 -0.041483063 0.0187405 -0.062027887 0.22003682 0.027919492 0.02581232
-0.054915577 -0.02703667 -0.14586267 -0.03979688 0.14749767 0.04128083 -0.124306664 0.21141446
-0.112001486 -0.00797244 -0.1182387 0.07768966 -0.036052443 -0.06705676 0.083572954 -0.017451942
0.19093117 0.0009956595 -0.06270593 -0.015452333 0.041122377 -0.09422589 0.059445996 -0.22072199
0.057344984 -0.033015303 0.07560243 -0.011897076 0.033875804 0.04641729 0.0809733 0.023926014
-0.05682694 0.037717775 0.04108764 -0.19549686 0.050164405 -0.09678101 0.29070336 -0.08004509
-0.071508236 0.19386984 -0.059872977 -0.19310273 -0.022005083 -0.050489053 0.124589674 0.23533149

sequential/output/MatMul f4 [6, 128]
00000000: cfbf 23be 9497 c73d fb4f 8c3e 5ecf bf3d
00000010: a70d a5be 9de3 873e cf5f 9dbe 483b 74be
00000020: 3d29 96be ba5a 9fbe 1feb 0f3e ccac dfbe
00000030: e578 89be fcc3 40be a068 b0bd 237a 8d3e
00000040: e9c2 b53d 05bb 0a3e 3fb0 59be 5253 633d
00000050: 6e3c 993e bb0a a43e fba8 e33d 3e30 6fbd
00000060: 204b 8f3e 2a2e bcbd fa94 4dbd b775 7fbe
00000070: 843c e1bd 557a 8c3e 0337 da3e 4abf 79be
00000080: 28d6 a93e 49c1 b33e d85e 413e d1f7 90be
00000090: e0e6 563e 7606 41be 971d 1a3e 775a ac3d
000000a0: 72b3 593d 9e26 8c3e 7c4c 163e 4df7 ea3e
000000b0: 9946 3dbe 3e32 93be a2ce 4e3e 409d f4bd
000000c0: 2dee 0e3e 0999 4dbd 041f 163e 8bc5 b0be
000000d0: bdb9 853e ed93 a8bd 0123 dcbe 6cde 79be
000000e0: 3aba 6fbe e63e 4cbe 481b 253e ce27 f4bb
000000f0: 8901 b7be 4c09 82be 8f42 73bd de87 ddbd
00000100: 2422 85bc fe90 84be d04b 88bd b4c2 6a3c
00000110: 5c74 09bd 3387 6cbe 4d74 6dbe 4977 16bd
00000120: 140b 85be a49f 303e 0369 133e e1c4 b23e
00000130: 186e 6c3c 2668 cebc 9015 173e 04ee 8cbe
00000140: e42f b3be 03d8 23be 58a0 6c3e a08a 983e
00000150: c54a 99be d6a8 56be 1284 3c3e e916 023e
00000160: 6375 42be 6040 693e cd98 f8bc 1f04 60bd
00000170: d378 483e 0a2b 983e de1a 77be 2c83 293e
00000180: cc31 8b3e 125b acbe 5b77 4c3d e4b0 34be
00000190: d95e 10be c694 a0be e680 f93c ba11 95be
000001a0: ca8a 803d c189 4a3b 8fa0 0abe 82c9 873c
000001b0: 41c1 89bd 5a4b 2cbe 3ef5 80be 8e70 cdbd
000001c0: 927e 803e b3eb 603e 5ce8 1f3e f39e b7be
000001d0: 340a b33e c830 27be 13e8 663e 71f8 ca3e
000001e0: 5a12 f93d 8c54 8f3d 06de 0c3d ed4c c23e
000001f0: d4ca 3c3e 602d 43be 8d42 ef3d ff8d bcbd
00000200: d265 7dbe b792 0e3e 27de 73bc 31b4 6e3e
00000210: 5724 7b3e cf28 013d ed01 b03e 273c 873e
00000220: 20d2 3bbe 21d5 24be 653b 293d af6f 863e
00000230: f315 073e e9d7 b2be a9e3 303e 785b c83d
00000240: fe3c fabc 6f1a 8bbe 87d3 bcbd e27d b2be
00000250: a8bd 9f3e 4adb 3d3e 79b8 ef3d 8e32 81bc
00000260: f1bb ca3d f2ac 353e a406 41be 693f da3d
00000270: 44d7 f33d 0d47 b93b f725 973d 5d8a 9dbe
00000280: a54b afbe fad8 75be 15c4 d03b 62d7 67be
00000290: 7c33 203e 81d2 8dbe 10a2 78be b2ae 8abe
000002a0: 88d1 9dbe 0082 d3be 32e3 35be 3e1d 0fbe
000002b0: e5a0 cabd 6c06 93be 5f85 3abe d2bb a83e
000002c0: 4862 84be 2d03 df3d 9f08 3e3e da6d 2b3e
000002d0: f67c 16bd 709d 80be 5242 393e 2ee6 a73d
000002e0: 307e 5cbe 0dfd 16be 38fe f3bd a1d2 bf3d
000002f0: 50b8 04be cab8 3ebc 8817 ca3d 34f6 46be
00000300: 4739 e53d 81b4 633e 9ce2 fb3d dc70 9dbd
00000310: 1c36 553d 70f8 543d a292 c2be 6570 713e
00000320: 0ebf 913e 7787 333e 3d8a 32be f03e 8abe
00000330: 3786 c5be e129 023e e27d 70be 7f52 cdbc
00000340: ccaa 643e 716d 9dbd 5eae 083e 7365 783e
00000350: 487e e43d f510 8bbe a4ca 023c 0a41 d03d
00000360: 3dcc 8cbe 0894 d13d adae 593e eee4 2dbe
00000370: a81b 533c a256 84bd e5fb 5d3d 93a1 7a3e
00000380: a6f1 153e 63cf 35bd c282 993e a92d 8c3e
00000390: 4481 91be 4436 a93e 961c 183e ecd0 093d
000003a0: 4a6a 64be ce9c 1f3d 90c1 d3bb 6119 9f3e
000003b0: e292 9dbd 3d78 88be 0b19 3abe 870e c53d
000003c0: 92b1 653e 68b5 093d bc12 e53d fbfd 093e
000003d0: 8f44 eabd 5825 a1bc 1e07 8fbe e85a abbd
000003e0: fe07 0bbe d472 2f3e 34ca 143d 9481 a2be
000003f0: 6abb d2bd f6bb e73e fa69 8e3d 1a72 a73e
-0.15991138 0.09745708 0.2740477 0.09365724 -0.32236978 0.26540843 -0.3073716 -0.23850739
-0.29328337 -0.31123906 0.14054535 -0.4368652 -0.26850048 -0.18824762 -0.08613706 0.27632245
0.08875067 0.13547905 -0.21258639 0.055499382 0.29928917 0.32039437 0.11116215 -0.058395617
0.27987003 -0.091884926 -0.050190903 -0.24947248 -0.109978706 0.27437082 0.42620096 -0.24389377
0.331712 0.35108402 0.18883836 -0.2831407 0.2098651 -0.18850121 0.1505035 0.08415692
0.053149648 0.27373213 0.14677614 0.458918 -0.18483962 -0.2874927 0.20196012 -0.119440556
0.13958044 -0.050194774 0.14660269 -0.34525713 0.2611827 -0.082313396 -0.42995456 -0.24401253
-0.23410884 -0.19945869 0.16123688 -0.007451034 -0.3574336 -0.25397718 -0.059389647 -0.1081693
-0.016251631 -0.2589187 -0.06655085 0.014328647 -0.033558235 -0.2309845 -0.23188896 -0.036734853
-0.25985014 0.17248398 0.14395528 0.34915832 0.014430545 -0.025196146 0.14754319 -0.27525342
-0.34997475 -0.1600037 0.23108041 0.29793262 -0.29939857 -0.20962843 0.18409756 0.12704052
-0.18990092 0.22778463 -0.030346299 -0.05469143 0.19577341 0.29720336 -0.24131343 0.16553944
0.2718643 -0.3366323 0.049918514 -0.17645603 -0.14098682 -0.31363505 0.030456971 -0.29115087
0.06276472 0.0030904862 -0.1353781 0.016575579 -0.067263134 -0.1682562 -0.25187105 -0.10031234
0.25096565 0.21964912 0.15615982 -0.35863456 0.34968722 -0.16327202 0.22549467 0.3964267
0.121617034 0.06998548 0.034391426 0.37949315 0.18436748 -0.19060278 0.116826154 -0.09206771
-0.24745873 0.13923155 -0.014884508 0.23310925 0.24525581 0.03153306 0.3437647 0.2641308
-0.18341875 -0.16096927 0.04131641 0.26257083 0.13191967 -0.3493035 0.17274345 0.09783071
-0.030546661 -0.27168605 -0.09220033 -0.34861666 0.31199384 0.18540683 0.11705107 -0.015771177
0.09899128 0.17741755 -0.1885019 0.10656626 0.11906293 0.005654222 0.07380288 -0.30769625
-0.342374 -0.24008551 0.006371031 -0.22640756 0.1564464 -0.27699664 -0.24280572 -0.27086407
-0.30823922 -0.4131012 -0.1776245 -0.13975999 -0.098939694 -0.28715837 -0.1821494 0.32955796
-0.25856233 0.108892776 0.18557976 0.16741124 -0.036740266 -0.25120115 0.18091705 0.081982
-0.21532512 -0.14744969 -0.11913723 0.09366346 -0.12960935 -0.011640737 0.098677695 -0.19429857
0.111925654 0.22236826 0.12299082 -0.07687542 0.052053556 0.05199474 -0.38002497 0.23578031
0.28466076 0.17532144 -0.17435546 -0.27001143 -0.3857896 0.12711288 -0.2348552 -0.025063751
0.22330779 -0.0768689 0.13347766 0.2425745 0.11156899 -0.27161375 0.007982884 0.10168655
-0.2749957 0.10233313 0.2125804 -0.16981861 0.012885012 -0.064618364 0.054195303 0.24475698
0.14642963 -0.044387233 0.29982573 0.27378586 -0.28418934 0.33049214 0.14854655 0.03364651
-0.22306171 0.0389679 -0.0064622834 0.3107405 -0.07694031 -0.26654235 -0.18173616 0.096219115
0.22431019 0.033620268 0.11185214 0.13475792 -0.11438858 -0.019671127 -0.27935117 -0.08366948
-0.13577268 0.17133647 0.03632565 -0.31739485 -0.10289653 0.4526059 0.06953807 0.3270424
